Assignment2/Models/basicCNN.pt (torch, 166159 bytes, 7 tensors)

conv1.weight f4 [16, 3, 9, 9]
-0.0047841235 0.03221456 -0.08467336 -0.03318824 -0.018050943 0.03518806 -0.085737996 0.0148117915
-0.013367079 -0.0006392245 -0.029057581 0.022346947 -0.010102711 -0.078175455 0.0017969827 -0.004104401
0.027919577 0.016175393 -0.012861561 -0.057393014 -0.09665137 -0.042508297 -0.06272004 -0.016732663
0.03814635 0.078399144 0.05555594 0.0017203714 -0.04563425 -0.057848096 0.029487364 0.04627256
0.051682364 0.035973597 -0.009226528 0.01471384 -0.040276203 -0.0033387726 -0.023598013 -0.05984643
-0.013980518 -0.027117772 0.032675795 0.08006108 0.00094544294 0.031788163 0.04193547 -0.018883815
-0.021567632 0.001699899 -0.030519878 0.002245254 0.012777953 -0.004422883 0.029101731 -0.05770255
-0.007820541 -0.023449775 0.0023733827 -0.08033975 -0.0003669406 -0.035794545 0.004061665 -0.036170296
-0.03458591 -0.022367485 -0.05809869 -0.060364336 -0.07760887 -0.019260826 0.015636139 0.0059740273
-0.028379781 0.012337569 0.04695036 -0.018684031 0.03981734 0.030247351 -0.05448391 -0.0075328974
-0.003442442 -0.026156308 -0.059229393 -0.030678215 0.028840967 -0.028861145 -0.0052836644 -0.06993507
0.038091876 0.039708234 0.02168219 0.013175549 -0.08623907 -0.07158177 -0.051728424 -0.02754727
0.05266587 0.08030191 0.0676792 -0.03927128 -0.01478273 0.008668149 0.008203552 0.032797504
0.0098670535 0.09289348 0.031748965 0.064643666 -0.0154649485 -0.029722335 0.020281969 -0.0037715042
0.10649453 0.10807601 0.09426367 0.12022388 0.049401868 0.039921448 -0.045664962 0.04621565
0.03900613 0.08063473 0.09996941 0.049139496 0.1005507 0.05096219 -0.00067637657 -0.00771655
-0.010784784 0.08024067 0.08061167 0.04584587 0.048902687 0.009611173 0.013584288 0.038979117
-0.01023691 0.041540224 0.012850118 -0.023608217 -0.041167174 0.014492294 -0.020263733 -0.065197416
0.030163271 -0.04707329 0.0050968346 0.001133295 0.011441327 -0.06587553 -0.0738809 0.0021507037
-0.017706167 -0.065728165 -0.02028032 -0.056589685 -0.04425142 -0.03783749 -0.050055128 0.0081071295
-0.05641258 -0.03362955 -0.05276386 -0.032593817 -0.044712152 -0.0003179736 -0.007410509 -0.033080436
-0.07756307 -0.02560952 -0.058049284 -0.031534635 -0.046584092 -0.046577815 -0.066334814 -0.042125635
-0.037190754 -0.046004903 -0.012875152 -0.019268755 -0.013306459 -0.053730827 -0.066712156 -0.010643961
0.005105886 0.027819041 0.0691014 -0.023764791 0.013712094 0.011194245 0.011270641 0.029551852
-0.07209276 0.028489659 0.014952497 0.041185237 0.06368705 0.02657441 -0.0058815433 -0.004994527
-0.054012552 -0.042485435 -0.035255317 0.040741332 -0.029390184 -0.015967026 -0.029017843 0.06579275
0.00839521 -0.042745624 0.015362358 0.04340188 0.028433044 0.0036124955 0.033963695 -0.019401353
0.062020674 0.024894789 0.045986418 0.057454094 -0.021625133 -0.056017257 -0.056138534 0.063385226
0.073385015 0.048291527 -0.013728769 0.022685787 -0.010755029 -0.0865185 -0.025959292 0.026507543
0.0024338996 -0.007117191 0.055129226 0.022674575 0.0593215 -0.015708055 -0.06986591 -0.06589512
0.06312001 0.039848253 0.06137165 0.060727693 0.058026165 0.00851406 -0.00077474973 -0.0076977927
-0.039373234 -0.047636963 0.054640904 -0.017009048 0.01732711 0.033694778 -0.017884498 -0.028315024
00000000: 23c4 9cbb 6af3 033d 3a69 adbd 64f0 07bd
00000010: 92df 93bc 5b21 103d 6797 afbd 28ad 723c
00000020: 9801 5bbc a191 27ba 2a0a eebc f210 b73c
00000030: d785 25bc 741a a0bd bc88 eb3a 367e 86bb
00000040: 99b7 e43c 4282 843c 4cb9 52bc f014 6bbd
00000050: 27f1 c5bd 2e1d 2ebd 5d73 80bd f012 89bc
00000060: 593f 1c3d bb8f a03d a08e 633d 167e e13a
00000070: fbea 3abd 20f2 6cbd 7c8f f13c 4c88 3d3d
00000080: e3b0 533d 0d59 133d dd2a 17bc 5112 713c
00000090: a9f8 24bd 4fcf 5abb 9f50 c1bc 8821 75bd
000000a0: 8b0e 65bc 1726 debc 0ed7 053d 10f7 a33d
000000b0: 9ad7 773a 4e34 023d 87c4 2b3d 3bb2 9abc
000000c0: 9aae b0bc 25cf de3a d304 fabc 1d25 133b
000000d0: 9f5a 513c d5ed 90bb c166 ee3c 8259 6cbd
000000e0: ba21 00bc be19 c0bc c18a 1b3b 2b89 a4bd
000000f0: ef61 c0b9 4d9d 12bd b717 853b 4e27 14bd
00000100: f5a9 0dbd 043c b7bc e4f8 6dbd 9840 77bd
00000110: 66f1 9ebd e1c8 9dbc 5c17 803c c6c1 c33b
00000120: b77c e8bc 8423 4a3c 054f 403d 410f 99bc
00000130: 8217 233d 4bc9 f73c 852a 5fbd 86d6 f6bb
00000140: 989a 61bb c145 d6bc 859a 72bd e150 fbbc
00000150: e443 ec3c 356e ecbc 9722 adbb 1e3a 8fbd
00000160: 3a06 1c3d 1aa5 223d d99e b13c 42de 573c
00000170: 1c9e b0bd 7799 92bd 2fe1 53bd d0aa e1bc
00000180: 2bb8 573d 5475 a43d 649b 8a3d ecda 20bd
00000190: 4333 72bc da04 0e3c 3168 063c ad56 063d
000001a0: 6ca9 213c f03e be3d 340b 023d e663 843d
000001b0: b260 7dbc 417c f3bc 5f26 a63c 572b 77bb
000001c0: ce19 da3d f556 dd3d 500d c13d f037 f63d
000001d0: 9d59 4a3d ac84 233d 2f0b 3bbd 9f4c 3d3d
000001e0: e4c4 1f3d d223 a53d c3bc cc3d 7f46 493d
000001f0: 87ed cd3d bbbd 503d dd4e 31ba 1ddb fcbb
00000200: aab2 30bc 3855 a43d bb17 a53d e1c8 3b3d
00000210: 2f4e 483d 2e78 1d3c a290 5e3c 91a8 1f3d
00000220: b6b8 27bc 1526 2a3d 4d89 523c 0566 c1bc
00000230: e99e 28bd 1671 6d3c 2100 a6bc 3986 85bd
00000240: f718 f73c eccf 40bd 5903 a73b 128b 943a
00000250: 6774 3b3c c0e9 86bd df4e 97bd d2f2 0c3b
00000260: 860c 91bc 7d9c 86bd ea22 a6bc 96ca 67bd
00000270: fa40 35bd 7cfb 1abd 9b06 4dbd c4d3 043c
00000280: e110 67bd 24bf 09bd eb1e 58bd 1881 05bd
00000290: 1724 37bd b2b5 a6b9 dbd3 f2bb 5a7f 07bd
000002a0: 63d9 9ebd 0ecb d1bc 16c5 6dbd 762a 01bd
000002b0: f6ce 3ebd 61c8 3ebd 8cda 87bd ee8b 2cbd
000002c0: 5555 18bd a36f 3cbd 4df2 52bc 82d9 9dbc
000002d0: 5603 5abc db14 5cbd 62a0 88bd 0264 2ebc
000002e0: 474f a73b c2e4 e33c 0985 8d3d 61ae c2bc
000002f0: b1a8 603c 1168 373c 7fa8 383c ba16 f23c
00000300: 5ea5 93bd 2563 e93c 51fb 743c dab1 283d
00000310: 5b6e 823d 94b2 d93c f6b9 c0bb 21a9 a3bb
00000320: 443c 5dbd 3505 2ebd e167 10bd 62e0 263d
00000330: afc3 f0bc 48cd 82bc d4b6 edbc 59be 863d
00000340: 108c 093c 0916 2fbd 66b2 7b3c 2bc6 313d
00000350: 6aec e83c 9ebf 6c3b 841d 0b3d 96ef 9ebc
00000360: 6409 7e3d 28f0 cb3c 415c 3c3d fc54 6b3d
00000370: 3127 b1bc 5a72 65bd 85f1 65bd 1dd0 813d
00000380: e24a 963d 56cd 453d a1ee 60bc 8bd7 b93c
00000390: dc35 30bc 9c30 b1bd 95a8 d4bc 5926 d93c
000003a0: 0f82 1f3b 5337 e9bb 2fcf 613d 08c0 b93c
000003b0: 1afb 723d 2eae 80bc dc15 8fbd 05f4 86bd
000003c0: 1045 813d ec37 233d d760 7b3d 9abd 783d
000003d0: d8ac 6d3d 8e7e 0b3c 9318 4bba c43d fcbb
000003e0: d445 21bd fa1e 43bd 24cf 5f3d 8f56 8bbc
000003f0: 95f1 8d3c 8903 0a3d 8382 92bc e9f4 e7bc

conv1.bias f4 [16]
0.08457 -0.039462406 -0.0013451482 -0.13977289 0.025323719 -0.0015161561 -0.053123947 -0.009801033
-0.052709118 -0.05680078 0.016401839 -0.0009896975 -0.02422835 -0.023325503 -0.0046012998 -0.03542779
00000000: 0933 ad3d 55a3 21bd af4f b0ba a020 0fbe
00000010: b073 cf3c c2b9 c6ba 7f98 59bd 8394 20bc
00000020: 84e5 57bd efa7 68bd 265d 863c bdb8 81ba
00000030: 887a c6bc 2015 bfbc 80c6 96bb bb1c 11bd

conv2.weight f4 [32, 16, 6, 6]
0.0026254922 -0.03264495 -0.014064464 -0.013503148 -0.08443132 -0.07273826 0.003238341 -0.054646585
-0.05039821 -0.047853187 -0.1017873 -0.05174218 -0.02100193 0.010891087 0.013662653 -0.0015593687
-0.0212076 -0.01734146 -0.01680014 0.021169635 0.017008133 0.03613504 0.0054525817 -0.05112455
-0.009906901 0.045933284 0.047210153 0.030048825 0.015341514 -0.08062456 0.03524702 0.005351894
-0.0018100707 0.0075246743 -0.043097816 -0.09659809 0.046087135 -0.018445173 0.03654631 -0.020442141
0.012766747 0.024404785 -0.01808506 -0.0198024 0.013357092 -0.0062101623 -0.0053712735 0.045381065
-0.03316639 0.017877601 -0.010602619 0.05001803 -0.022393417 -0.035213213 0.02602132 -0.02027135
0.024173534 0.043494854 0.0069296146 0.007765977 0.04907634 0.024916174 0.030740641 0.006998742
0.03999601 0.012953175 -0.02305765 -0.0063536414 -0.020032788 -0.0073814183 0.0070145787 0.03199455
-0.033582732 0.017694568 -0.0030198202 -0.03199019 0.0016208434 0.017230676 0.013551174 -0.0016556616
-0.042413782 -0.025929922 0.009373834 0.00878264 0.012731414 -0.017132105 0.018678926 -0.026250053
0.014766559 0.033119474 0.032750513 -0.041014668 -0.020368364 -0.016935462 -0.009663669 -0.031879734
-0.028494861 0.017595788 0.011644441 0.057438407 0.037903715 -0.02158156 -0.031862605 -0.00912494
-0.010910787 -0.008911563 -0.029047517 0.007550887 0.009373521 0.039243728 -0.0044741645 -0.023638744
0.046861585 -9.296269e-05 0.025074232 0.05149637 0.04977852 0.015157887 0.004562531 0.029443204
0.04033515 -0.00067576056 0.03976829 -0.003096836 -0.0049988944 0.05234173 0.032775678 0.018074423
-0.022331813 0.036871534 0.025094107 0.044563413 0.0460041 0.034925308 -0.023141043 0.03695671
0.015945464 0.04767966 0.03316431 0.003957109 0.04899368 0.0049900035 -0.00416593 0.039989207
-0.006512825 0.0014261741 -0.00660607 0.020999964 0.0084805535 0.01959272 -0.022730742 0.019581255
-0.029774396 0.03403833 -0.03542358 -0.024624972 0.026535183 0.025156556 0.022329733 0.042823933
0.006629678 -0.015271506 -0.007721877 0.008471 -0.00044130842 0.03321816 -0.0042393217 0.019674096
-0.035831127 0.013750214 0.008851916 0.037394315 -0.013455777 0.041405536 -0.020039609 0.034776926
-0.01898286 -0.027397603 -0.02100192 0.014564465 -0.027765214 0.0028990207 0.04861289 0.018709553
0.026520872 -0.028151935 -0.049201358 0.002903315 0.041621085 0.022256382 0.032019865 -0.0020001894
-0.022122195 0.00082092977 0.032961227 0.05567625 0.006186429 -0.008718734 -0.0124525 -0.03278097
-0.010236658 -0.008866696 -0.0059181587 0.015133071 0.0031020213 -0.022609605 -0.026441012 0.028580658
0.009404681 -0.03915729 -0.02212215 -0.03403944 -0.035057995 -0.028409751 0.02843928 0.009568315
0.0014002534 0.0030001148 -0.011325202 -0.049315076 -0.079703026 -0.08815585 -0.059935972 -0.053474743
-0.09430289 -0.06615544 -0.057262726 -0.06992563 -0.022269683 -0.07652007 0.010702543 0.0035887943
-0.014715993 0.019056596 -0.06431756 -0.06724038 -0.012385095 0.0044688587 0.01945707 -0.036510043
-0.0699445 -0.089079365 0.0027130188 0.0082217185 -0.012795641 -0.019163543 -0.032338925 -0.07031905
-0.045124732 -0.027380578 -0.043339625 -0.04446526 0.047577754 -0.011300637 -0.0294246 -0.015698792
00000000: 7310 2c3b b6b6 05bd a36e 66bc 4f3c 5dbc
00000010: 54ea acbd ccf7 94bd 593a 543b 19d5 5fbd
00000020: 5a6e 4ebd b401 44bd dc75 d0bd 9cef 53bd
00000030: 3d0c acbc 8870 323c 52d9 5f3c bb63 ccba
00000040: 90bb adbc ad0f 8ebc 72a0 89bc f16b ad3c
00000050: a454 8b3c 5602 143d 92ab b23b fa67 51bd
00000060: 8e50 22bc 8a24 3c3d 6f5f 413d f428 f63c
00000070: f95a 7b3c 7d1e a5bd 2e5f 103d f15e af3b
00000080: e53f edba 8b91 f63b 5687 30bd 38d5 c5bd
00000090: ddc5 3c3d 551a 97bc 95b1 153d 4776 a7bc
000000a0: 9e2b 513c 8bec c73c 1f27 94bc a538 a2bc
000000b0: b4d7 5a3c 9e7e cbbb 8201 b0bb 7fe1 393d
000000c0: 7bd9 07bd 0c74 923c 9bb6 2dbc b5df 4c3d
000000d0: 6672 b7bc bb3b 10bd aa2a d53c 1a10 a6bc
000000e0: 9307 c63c a927 323d d211 e33b bd79 fe3b
000000f0: 4604 493d 011d cc3c ccd3 fb3c b455 e53b
00000100: dbd2 233d 8e39 543c 66e3 bcbc 3532 d0bb
00000110: cd1b a4bc d3df f1bb 8dda e53b b80c 033d
00000120: 0c8e 09bd 33f4 903c 2de8 45bb 2508 03bd
00000130: 7b72 d43a 5927 8d3c be05 5e3c c902 d9ba
00000140: 13ba 2dbd fd6a d4bc b694 193c 10e5 0f3c
00000150: 6c97 503c a158 8cbc 8c04 993c 5a0a d7bc
00000160: 70ef 713c 49a8 073d 6725 063d fffe 27bd
00000170: 8edb a6bc 3dbc 8abc 5e54 1ebc 5394 02bd
00000180: 0e6e e9bc 0b25 903c 53c8 3e3c 8944 6b3d
00000190: ed40 1b3d d0cb b0bc 5d82 02bd c680 15bc
000001a0: 28c3 32bc ce01 12bc 0ff5 edbc 6e6d f73b
000001b0: 6693 193c 08be 203d 039c 92bb 0aa6 c1bc
000001c0: eff1 3f3d f7f4 c2b8 7a68 cd3c dced 523d
000001d0: 90e4 4b3d c958 783c 4981 953b e032 f13c
000001e0: 7836 253d 8625 31ba 13e4 223d 49f4 4abb
000001f0: c4cd a3bb 4864 563d ca3f 063d d010 943c
00000200: 35f1 b6bc 9b06 173d 2892 cd3c 2088 363d
00000210: cc6e 3c3d d70d 0f3d 4992 bdbc eb5f 173d
00000220: 10a0 823c bf4b 433d 4dd7 073d a3aa 813b
00000230: 99ad 483d 2f83 a33b 5b82 88bb b9cb 233d
00000240: 8969 d5bb 76ee ba3a bb77 d8bb 1e08 ac3c
00000250: 05f2 0a3c e980 a03c d235 babc de68 a03c
00000260: 6fe9 f3bc c76b 0b3d 5118 11bd 4fba c9bc
00000270: 5060 d93c 1f15 ce3c d8ec b63c 2668 2f3d
00000280: c53d d93b 5735 7abc cd07 fdbb f3c9 0a3c
00000290: 6a5f e7b9 c40f 083d 02ea 8abb 922b a13c
000002a0: a9c3 12bd 9448 613c a007 113c c82a 193d
000002b0: 9f75 5cbc da98 293d 1b2a a4bc 4072 0e3d
000002c0: f181 9bbc f070 e0bc 380c acbc cb9f 6e3c
000002d0: e073 e3bc 7ffd 3d3b 4f1e 473d c744 993c
000002e0: 4d42 d93c e39e e6bc 5d87 49bd 8b45 3e3b
000002f0: df7a 2a3d 0453 b63c 4327 033d 9c15 03bb
00000300: 9b39 b5bc aa33 573a 5a02 073d c80c 643d
00000310: 87b7 ca3b 05d9 0ebc 9205 4cbc 5745 06bd
00000320: a8b7 27bc 9e45 11bc 1ded c1bb b3f0 773c
00000330: 484b 4b3b c737 b9bc d29a d8bc fc21 ea3c
00000340: 1716 1a3c 6563 20bd 8339 b5bc f16c 0bbd
00000350: f998 0fbd 91bb e8bc 7ef9 e83c 6cc4 1c3c
00000360: b588 b73a 939d 443b 578d 39bc 9bfe 49bd
00000370: 573b a3bd 0e8b b4bd 6c7f 75bd 5508 5bbd
00000380: e021 c1bd 817c 87bd 528c 6abd 2b35 8fbd
00000390: e96e b6bc 8eb6 9cbd b859 2f3c fa31 6b3b
000003a0: 591b 71bc 941c 9c3c edb8 83bd 53b5 89bd
000003b0: daea 4abc 816f 923b 6f64 9f3c 8e8b 15bd
000003c0: 103f 8fbd 3e6f b6bd e7cc 313b 63b4 063c
000003d0: cfa4 51bc ddfc 9cbc d275 04bd 6f03 90bd
000003e0: b6d4 38bd 3c4d e0bc e484 31bd 3421 36bd
000003f0: e4e0 423d 4f26 39bc dc0b f1bc c19a 80bc

conv2.bias f4 [32]
-0.03958658 -0.0031058844 -0.024953758 0.030172508 -0.0271976 0.0016375168 0.028470824 -0.03407824
-0.041652244 0.018041357 0.011487599 0.021343041 0.013034839 0.022547683 0.021251438 -0.037646774
-0.06787326 -0.034846805 -0.010722709 0.00039259653 -0.031217074 0.01839757 0.02782026 0.012059699
0.00019804608 0.03123727 0.039749045 0.008369547 0.028418906 -0.024836075 0.014318119 -0.028093196
00000000: 8a25 22bd 188c 4bbb d36b ccbc 562c f73c
00000010: 80cd debc f2a1 d63a a53b e93c a095 0bbd
00000020: 8b9b 2abd 78cb 933c 7c36 3c3c 9ad7 ae3c
00000030: 1490 553c ebb5 b83c 7f17 ae3c 8133 1abd
00000040: 2301 8bbd 86bb 0ebd 4dae 2fbc 6ad5 cd39
00000050: f3ba ffbc 80b6 963c 50e7 e33c 0b96 453c
00000060: 97aa 4f39 4ee5 ff3c e5cf 223d 6d20 093c
00000070: c4ce e83c 0675 cbbc 8b96 6a3c b423 e6bc

conv3.weight f4 [64, 32, 3, 3]
0.068616875 0.011962151 0.07039764 0.07013621 -0.032088675 -0.025995072 0.05299197 0.041270502
0.023690924 -0.04970442 -0.058808953 0.05281432 -0.0068805222 -0.04202807 -0.042360824 -0.0016099857
-0.06612706 0.026391074 0.071453564 0.03241225 0.06429579 -0.031142743 0.06330431 0.06268799
0.05976798 0.03405947 0.06146589 0.022686666 0.051153716 0.08338881 0.03760023 -0.035330217
-0.0031554396 -0.017173376 0.011560714 0.06475844 0.03415496 0.049130566 0.09124906 0.006250307
-0.026543343 0.038912065 -0.03742347 -0.018176574 -0.024084806 -0.0150999455 -0.00023639425 -0.03838873
0.025843548 0.066646144 -0.05785431 -0.04315813 0.011849685 -0.018103383 0.035072908 -0.027892653
0.0032615531 0.013602088 0.08263394 0.051221035 0.05784079 0.044391178 0.00479472 -0.040999502
0.024406105 -0.008394648 0.0022816013 -0.026927788 -0.021451905 0.01864642 0.050186973 -0.008805295
-0.04283599 -0.077342056 -0.045726277 0.026350835 -0.024960622 0.0064830277 0.010571709 0.015417267
-0.021525675 0.057938974 -0.0204952 -0.019238621 0.07909194 0.036127098 -0.046238206 0.050869204
-0.029620605 0.028405355 0.049939353 0.014015086 -0.043318424 0.016489066 0.036806036 0.05366214
0.03912501 -0.047268122 -0.03987273 0.021590339 0.004479832 0.071020335 -0.021002037 0.04645182
0.046388365 -0.023574222 -0.017811151 -0.04554593 0.0103166215 -0.010452066 0.0029110317 0.07612675
0.014410984 0.052322563 0.020455856 0.02881612 0.0046969387 0.01018131 0.012283707 0.0014815581
0.09268918 0.027896527 -0.07768506 -0.04445874 -0.08673718 -0.14462902 0.0097265085 0.0074173776
0.01069436 0.04324387 0.018037379 0.05644862 0.04475563 0.058882132 -0.029112913 -0.04281728
-0.03293412 0.062215857 0.036140062 0.07180488 -0.016724454 0.0038322215 0.036163896 0.0227227
-0.015753334 -0.08810392 -0.04916454 -0.10373842 -0.07742934 -0.098353885 -0.02833315 -0.061417297
-0.006020951 -0.029989213 -0.025613371 0.0112686325 0.00045039057 0.008541337 -0.017113172 0.0050258497
-0.0020884706 -0.020590719 0.0053320793 0.02935604 0.038660426 -0.015902502 0.0587708 0.0577272
-0.0011403178 0.06312915 0.03136121 -0.011546851 0.041602395 -0.016672546 0.014931658 0.04361168
-0.0020572892 0.031512927 0.018367855 0.05985454 -0.014844624 0.016374787 0.06742058 -0.0066159377
-0.09926303 0.006178105 -0.06047725 -0.02072149 -0.00037298756 0.06442826 -0.02076287 0.070057616
-0.03314404 0.06909198 -0.041865196 0.007299017 0.009179667 0.051289953 0.0046665673 -0.042134274
-0.010813718 -0.0021418433 -0.030923467 -0.051545963 0.027854044 0.016950091 -0.08369121 0.08964415
0.071107015 0.0050612306 0.06372448 0.04554702 -0.08269864 0.006578807 0.0015233856 -0.07977588
0.05099289 0.04052935 0.07006425 -0.025277026 -0.016561998 0.0068177395 -0.00046696299 0.025981156
-0.018122992 -0.028366681 0.024359854 0.051945146 0.06836265 0.010668955 -0.0013252506 -0.013884188
-0.011978916 0.011400612 -0.024807824 -0.03801927 -0.01411272 -0.021370856 -0.04034199 -0.0048666648
0.006966039 0.041150913 -0.037043907 0.005426093 0.04845901 0.01992203 -0.015083476 0.08946456
0.046839867 -0.022952935 -0.00023528699 -0.045195237 0.024141029 0.036564223 0.031903062 0.045351565
00000000: 0187 8c3d e6fc 433c a32c 903d 93a3 8f3d
00000010: 6a6f 03bd 9ef3 d4bc 1c0e 593d 420b 293d
00000020: 7813 c23c dd96 4bbd a8e1 70bd d453 583d
00000030: 0176 e1bb a025 2cbd 8b82 2dbd 2806 d3ba
00000040: a06d 87bd 1832 d83c 3f56 923d b5c2 043d
00000050: 83ad 833d 111f ffbc b1a5 813d 9062 803d
00000060: 45cf 743d f181 0b3d a8c3 7b3d 63d9 b93c
00000070: 8f86 513d c1c7 aa3d b302 1a3d 6bb6 10bd
00000080: 7ecb 4ebb 2eaf 8cbc 2669 3d3c 13a0 843d
00000090: 12e6 0b3d 223d 493d cae0 ba3d 60cf cc3b
000000a0: 6d71 d9bc 4262 1f3d 5a49 19bd 0ae7 94bc
000000b0: 804d c5bc c365 77bc 99e0 77b9 803d 1dbd
000000c0: d9b5 d33c c67d 883d a4f8 6cbd 94c6 30bd
000000d0: 2e25 423c 8c4d 94bc 9ca8 0f3d 227f e4bc
000000e0: c8bf 553b 4bdb 5e3c fc3b a93d 26cd 513d
000000f0: 77ea 6c3d 86d3 353d 071d 9d3b 18ef 27bd
00000100: 50ef c73c b589 09bc eb86 153b aa97 dcbc
00000110: e8bb afbc 61c0 983c db90 4d3d 1644 10bc
00000120: cb74 2fbd 8365 9ebd 7a4b 3bbd b5dd d73c
00000130: 387a ccbc 946f d43b f634 2d3c b498 7c3c
00000140: 9d56 b0bc 6b51 6d3d 8de5 a7bc 509a 9dbc
00000150: f4fa a13d 02fa 133d 4664 3dbd 3a5c 503d
00000160: e9a6 f2bc 59b2 e83c 358d 4c3d 889f 653c
00000170: a96e 31bd 1414 873c edc1 163d d5cc 5b3d
00000180: 8c41 203d 389c 41bd 9651 23bd 39de b03c
00000190: 8ecb 923b 1c73 913d 770c acbc 4344 3e3d
000001a0: ba01 3e3d ba1e c1bc b1e8 91bc 5e8e 3abd
000001b0: 0c07 293c 243f 2bbc 02c7 3e3b 57e8 9b3d
000001c0: 0c1c 6c3c 2f50 563d 0a93 a73c c90f ec3c
000001d0: c7e8 993b 82cf 263c 9a41 493c d730 c23a
000001e0: d3d3 bd3d 4287 e43c 5819 9fbd 5e1a 36bd
000001f0: 43a3 b1bd a119 14be ef5b 1f3c 790d f33b
00000200: 6637 2f3c 7c20 313d 20c3 933c ab36 673d
00000210: ae51 373d 642e 713d 347e eebc 2c61 2fbd
00000220: eee5 06bd 0ed6 7e3d 9a07 143d 700e 933d
00000230: b901 89bc 0226 7b3b 9820 143d f524 ba3c
00000240: 230d 81bc d46f b4bd c260 49bd cf74 d4bd
00000250: 4693 9ebd c36d c9bd ec1a e8bc b490 7bbd
00000260: 664b c5bb f0ab f5bc 22d3 d1bc 12a0 383c
00000270: 6622 ec39 f7f0 0b3c ec30 8cbc e2af a43b
00000280: b9de 08bb dead a8bc b9b8 ae3b 147c f03c
00000290: 655a 1e3d f745 82bc a6b9 703d 5b73 6c3d
000002a0: b776 95ba db49 813d 9d74 003d 012f 3dbc
000002b0: 4667 2a3d dd94 88bc eaa3 743c 29a2 323d
000002c0: 96d3 06bb b313 013d 2f78 963c 092a 753d
000002d0: de36 73bc 6b24 863c cd13 8a3d 82ca d8bb
000002e0: 6a4a cbbd b371 ca3b feb6 77bd 1dc0 a9bc
000002f0: 8b8d c3b9 f7f2 833d e516 aabc 5e7a 8f3d
00000300: 0bc2 07bd 1980 8d3d d77a 2bbd 982c ef3b
00000310: 5066 163c 6a15 523d 01ea 983b fd94 2cbd
00000320: 052c 31bc 2b5e 0cbb 3653 fdbc dc21 53bd
00000330: 2a2e e43c ebda 8a3c 4c66 abbd 5a97 b73d
00000340: 8ea0 913d aed8 a53b fb81 823d 838f 3a3d
00000350: e85d a9bd 0893 d73b 57ac c73a 8961 a3bd
00000360: ecdd 503d 1b02 263d d87d 8f3d c411 cfbc
00000370: 07ad 87bc 5867 df3b b6d2 f4b9 6fd6 d43c
00000380: ab76 94bc 3e61 e8bc 518e c73c 6fc4 543d
00000390: b801 8c3d d7cc 2e3c 08b4 adba 817a 63bc
000003a0: 3743 44bc a2c9 3a3c c739 cbbc 18ba 1bbd
000003b0: 0a39 67bc ef11 afbc a43d 25bd 8b78 9fbb
000003c0: 5f43 e43b dc8d 283d 5abb 17bd 5ecd b13b
000003d0: f47c 463d 8633 a33c af20 77bc 3239 b73d
000003e0: 29db 3f3d cb07 bcbc 5fb7 76b9 a41e 39bd
000003f0: 68c3 c53c 5ec4 153d c9ac 023d 90c2 393d

conv3.bias f4 [64]
-0.039228566 -0.043753266 -0.046265606 -0.040385924 0.008756297 -0.012722089 0.013924476 0.0022971823
-0.014027674 -0.025208162 -0.04595384 -0.0044121766 -0.01883418 0.0073888297 -0.031404696 0.058397334
0.057124846 -0.047579605 -0.018678047 0.045175742 0.024990529 0.0014558082 0.05968039 -0.055130564
0.03703867 0.055606704 -0.024750145 0.04763616 0.035463367 -0.025169017 0.03608915 -0.009692552
0.033464156 0.03789732 -0.015718477 -0.028471999 -0.015970305 -0.014457107 -0.02993559 -0.021579748
-0.021308992 -0.012336302 -0.041702703 -0.048349448 -0.04839815 -0.00394949 0.008521475 0.059674706
0.060098022 0.02950017 -0.000159328 -0.011328044 0.047576495 0.020377949 0.048609033 0.046055224
-0.049898617 0.027924562 0.011637962 -0.027135927 0.016899716 -0.021651534 0.053945392 0.011240276
00000000: 22ae 20bd a036 33bd 0181 3dbd b66b 25bd
00000010: 9276 0f3c 4f70 50bc 7c23 643c 538c 163b
00000020: 54d4 65bc 5981 cebc 183a 3cbd 0594 90bb
00000030: 234a 9abc ff1d f23b 36a2 00bd 0b32 6f3d
00000040: befb 693d d5e2 42bd b402 99bc 330a 393d
00000050: f0b8 cc3c d1d0 be3a 6d73 743d 96d0 61bd
00000060: dcb5 173d dbc3 633d d1c0 cabc 221e 433d
00000070: 0942 113d 412f cebc 37d2 133d 82cd 1ebc
00000080: b611 093d 383a 1b3d 09c4 80bc 1c3e e9bc
00000090: 28d4 82bc 80dd 6cbc 7c3b f5bc 03c8 b0bc
000000a0: 3290 aebc 331e 4abc 74d0 2abd 120a 46bd
000000b0: 233d 46bd b96a 81bb a89d 0b3c 776d 743d
000000c0: 5829 763d 57aa f13c 4911 27b9 4399 39bc
000000d0: 92df 423d a8ef a63c 441a 473d 67a4 3c3d
000000e0: 7e62 4cbd 0dc2 e43c 27ad 3e3c 2a4c debc
000000f0: 4671 8a3c 8f5e b1bc d8f5 5c3d 2229 383c

fc1.weight f4 [1, 64]
0.08674217 -0.13245463 -0.14667907 -0.12477245 0.1058615 0.15495116 -0.18697317 0.12889218
-0.13685784 -0.22469355 0.06505803 -0.1984303 0.07195972 -0.1925071 -0.21685201 0.14679421
-0.20315495 0.13331293 -0.15575318 0.09430797 -0.15860079 0.10901604 -0.17492273 0.073834844
0.14590041 -0.15718153 -0.1766664 -0.20949925 -0.09701328 -0.09007633 0.1534255 -0.14012088
0.12088866 -0.18384936 0.07772918 -0.11958257 0.09558831 0.12072993 0.16103303 -0.18085687
-0.13053754 0.10297867 0.10249711 -0.0323148 0.06492863 0.15177122 0.0030584014 -0.101030335
-0.18099777 -0.1093665 -0.1606501 -0.12045977 -0.13959774 0.057065167 0.15856013 -0.2539894
0.12896349 -0.2004087 -0.17806743 0.07612286 0.120877095 0.073607944 0.06527262 -0.08585043
00000000: e1a5 b13d 30a2 07be 0a33 16be b388 ffbd
00000010: eacd d83d 84ab 1e3e e575 3fbe 50fc 033e
00000020: 7624 0cbe 1116 66be 253d 853d 5031 4bbe
00000030: 9e5f 933d 9520 45be 740e 5ebe 3951 163e
00000040: da07 50be 2f83 083e c37d 1fbe 8924 c13d
00000050: 3f68 22be cd43 df3d f21e 33be b936 973d
00000060: eb66 153e 32f4 20be 09e8 34be f986 56be
00000070: e6ae c6bd f079 b8bd 931b 1d3e d97b 0fbe
00000080: 7994 f73d 0243 3cbe 7a30 9f3d b5e7 f4bd
00000090: cec3 c33d 4141 f73d d8e5 243e 8b32 39be
000000a0: a2ab 05be 7be6 d23d 01ea d13d 865c 04bd
000000b0: 4df9 843d ea69 1b3e 766f 483b fee8 cebd
000000c0: 7b57 39be 8bfb dfbd 7681 24be 9db3 f6bd
000000d0: b6f2 0ebe 2abd 693d 965d 223e e60a 82be
000000e0: 010f 043e f037 4dbe 4f57 36be 4de6 9b3d
000000f0: 698e f73d c3bf 963d a7ad 853d 5ad2 afbd
