Assignment2/Models/CNN_dropout_fc.pt (torch, 166159 bytes, 7 tensors)

blockA.weight f4 [16, 3, 9, 9]
-0.0134404395 0.034804363 0.044102903 0.061209995 -0.049721926 -0.11924115 0.016027147 0.0112994425
0.040194232 -0.255914 0.032792408 -0.06547113 -0.012920207 -0.0128360465 0.08583061 0.06815648
-0.031310655 -0.25339273 -0.05849751 -0.018460203 0.13139506 -0.065362446 -0.15996468 0.05713303
0.0052597495 0.11768959 -0.022410074 -0.087908104 -0.007386527 -0.023174176 0.16181165 0.031699225
0.023528695 0.04786627 0.047858693 0.08495265 -0.0037488763 -0.028666977 0.015904974 -0.05021912
0.008241029 -0.006412443 0.15459092 0.033575103 0.15124604 0.026912762 -0.07636421 0.03281765
-0.12901065 -0.0728564 0.037785035 -0.014611326 0.063236624 -0.100360826 0.09179482 -0.14264882
0.09348932 0.10430518 -0.06820469 0.057742614 0.08812849 0.02186309 -0.0564455 0.10604116
-0.013080069 0.068225026 0.008050551 -0.10888677 0.045910597 0.013300043 -0.0063721635 0.31985328
0.046519183 0.11130485 -0.06720935 0.020152811 -0.020697065 -0.026403012 0.04267176 -0.03228062
-0.11852553 -0.027889926 0.020445865 -0.10226908 0.049343184 0.05488516 0.047707617 0.08608828
-0.07923202 -0.008169648 0.1252644 -0.13863513 -0.012225774 0.16395564 -0.12326135 0.09141996
0.08729783 0.045461923 0.03541046 0.008186717 -0.043247506 0.06268684 0.1441225 0.12636559
0.007364941 0.18519434 -0.03816753 0.0745261 0.007813337 0.075297475 0.08807251 0.043706924
-0.110215776 0.028208073 -0.088383175 -0.083357655 0.064696155 0.17791708 -0.11545287 0.012309251
0.1121072 0.054050516 -0.14276052 -0.30575368 0.022220882 -0.12028626 0.06667632 0.19658855
0.11323939 0.0804447 0.068906695 -0.23466033 -0.24202472 -0.12576258 -0.06007749 0.17728402
-0.025438441 -0.11601628 0.012611469 -0.0034099254 -0.054537892 -0.017766217 0.022742907 0.039895218
-0.010687623 0.03482366 -0.13131014 -0.082613274 -0.22510311 -0.09246424 0.0019437092 0.06653544
0.12470033 0.04390119 0.0969244 -0.20517193 -0.0455664 -0.18944044 -0.04223032 -0.0036169058
0.03798089 0.0065243747 -0.14505653 0.15031652 -0.04261906 -0.13986264 -0.035364408 0.062834285
0.10069854 0.01808185 -0.17520973 -0.030457642 -0.05099059 -0.07543475 -0.059516527 -0.077843755
0.20488705 0.105253 0.073297426 0.12978378 -0.005863815 -0.073610276 0.108338036 -0.03342111
0.003001227 0.05650432 -0.08671219 0.068998255 0.097347975 -0.078899406 -0.038423073 -0.14369433
0.048804034 0.070048444 -0.08039189 -0.04031827 0.007833435 0.050774977 0.058432516 0.04637973
-0.106319904 -0.04372187 0.08338721 -0.02613077 -0.04686665 0.020873483 0.024236353 -0.11269739
-0.0756283 -0.11908754 0.0774543 0.010390478 -0.007920213 -0.042052258 0.048040763 -0.0014879783
0.0027733296 -0.051053144 -0.17249078 0.058959328 0.060543336 -0.0005161831 0.06662556 -0.09801437
0.021465484 -0.059487034 -0.09513559 0.042910185 0.029387228 0.12947294 0.11741512 -0.06812222
0.0072316476 -0.014973386 0.05950623 -0.12930249 0.20600165 0.010799802 0.19173612 0.027615573
0.2295756 0.0078022103 0.030814767 -0.31055933 -0.033069074 0.08107279 -0.12884015 -0.04761896
-0.055785146 0.030283548 0.11770096 0.054474674 0.22808053 -0.10044438 -0.017245445 0.021242198
00000000: 4a35 5cbc 058f 0e3d 3fa5 343d 55b7 7a3d
00000010: 38a9 4bbd b434 f4bd 5d4b 833c 4c21 393c
00000020: b5a2 243d 2907 83be 5551 063d ba15 86bd
00000030: 47af 53bc 484e 52bc f5c7 af3d a095 8b3d
00000040: 9a3f 00bd b1bc 81be 169b 6fbd da39 97bc
00000050: 6d8c 063e bfdc 85bd c8cd 23be 5304 6a3d
00000060: fa59 ac3b 3d07 f13d 5595 b7bc 2a09 b4bd
00000070: ae0a f2bb c5d7 bdbc f4b1 253e 0cd7 013d
00000080: 40bf c03c 6c0f 443d 7a07 443d a8fb ad3d
00000090: b5af 75bb 02d7 eabc 264b 823c 90b2 4dbd
000000a0: 6205 073c 781f d2bb 154d 1e3e 0c86 093d
000000b0: 3ee0 1a3e 2778 dc3c d764 9cbd cd6b 063d
000000c0: 5e1b 04be bc35 95bd 7bc4 1a3d 5864 6fbc
000000d0: 3482 813d fa89 cdbd ecfe bb3d 8812 12be
000000e0: 5477 bf3d f49d d53d e7ae 8bbd 8583 6c3d
000000f0: b67c b43d 391a b33c 6633 67bd 1c2c d93d
00000100: c94d 56bc 90b9 8b3d 75e6 033c 0700 dfbd
00000110: c00c 3c3d 6ce8 593c 95cd d0bb cfc3 a33e
00000120: e68a 3e3d ccf3 e33d 0ea5 89bd 8217 a53c
00000130: e48c a9bc 214b d8bc 95c8 2e3d af38 04bd
00000140: 83bd f2bd 6a79 e4bc 167e a73c 7472 d1bd
00000150: 141c 4a3d 43cf 603d 1069 433d 0d4f b03d
00000160: 6644 a2bd fdd9 05bc 5045 003e 5ef6 0dbe
00000170: 9d4e 48bc fde3 273e 7270 fcbd 633a bb3d
00000180: 34c9 b23d 4836 3a3d 8f0a 113d 9421 063c
00000190: 4c24 31bd f561 803d d994 133e fb65 013e
000001a0: 9a55 f13b 96a3 3d3e 8e55 1cbd 24a1 983d
000001b0: 8303 003c 9035 9a3d 5c5f b43d 0806 333d
000001c0: cfb8 e1bd 9e14 e73c 3d02 b5bd 6bb7 aabd
000001d0: 6b7f 843d e52f 363e 8e72 ecbd beac 493c
000001e0: 7698 e53d 1364 5d3d d02f 12be bf8b 9cbe
000001f0: 9108 b63c a558 f6bd 988d 883d 824e 493e
00000200: 0eea e73d 31c0 a43d f41e 8d3d cc4a 70be
00000210: 54d5 77be e8c7 00be d013 76bd f189 353e
00000220: 4764 d0bc f299 edbd 56a0 4e3c 0e79 5fbb
00000230: 2063 5fbd 758a 91bc 554f ba3c 2b69 233d
00000240: 241b 2fbc 41a3 0e3d 2a76 06be 2631 a9bd
00000250: 6e81 66be e45d bdbd 0fc4 fe3a bc43 883d
00000260: e362 ff3d bcd1 333d 4d80 c63d 9718 52be
00000270: d5a3 3abd adfc 41be b3f9 2cbd 9c09 6dbb
00000280: da91 1b3d 6cca d53b b389 14be 93ec 193e
00000290: 5391 2ebd 2738 0fbe 45da 10bd 43af 803d
000002a0: 093b ce3d 6320 943c 2e6a 33be 4e82 f9bc
000002b0: 82db 50bd 897d 9abd 9ac7 73bd 8c6c 9fbd
000002c0: e9cd 513e e38e d73d f61c 963d 0ae6 043e
000002d0: 3f25 c0bb fcc0 96bd 55e0 dd3d 93e4 08bd
000002e0: 3cb0 443b 1371 673d 2996 b1bd f54e 8d3d
000002f0: 605e c73d 0396 a1bd 8361 1dbd 9b24 13be
00000300: bde6 473d 8f75 8f3d 81a4 a4bd c524 25bd
00000310: cf57 003c 6cf9 4f3d ef56 6f3d acf8 3d3d
00000320: 40be d9bd b415 33bd eac6 aa3d 3210 d6bc
00000330: 3ff7 3fbd defe aa3c 518b c63c e4cd e6bd
00000340: 03e3 9abd 2be4 f3bd 5ca0 9e3d d33c 2a3c
00000350: c8c3 01bc fd3e 2cbd 64c6 443d 4408 c3ba
00000360: c0c0 353b 1a1d 51bd 6ca1 30be 567f 713d
00000370: 4afc 773d 7650 07ba fb72 883d c2bb c8bd
00000380: 62d8 af3c ada8 73bd 73d6 c2bd 97c2 2f3d
00000390: 7cbd f03c 8e94 043e 5777 f03d aa83 8bbd
000003a0: 75f7 ec3b ef52 75bc cebc 733d df67 04be
000003b0: 19f2 523e a7f1 303c 7956 443e 0e3a e23c
000003c0: de15 6b3e afa9 ff3b 406f fc3c a201 9fbe
000003d0: 7073 07bd 7e09 a63d acee 03be 190c 43bd
000003e0: f77e 64bd 3415 f83c 330d f13d d620 5f3d
000003f0: f18d 693e c8b5 cdbd 5246 8dbc 1e04 ae3c

blockA.bias f4 [16]
-0.03481056 0.039296385 -0.057517763 -0.053959828 0.04209003 0.09033398 0.0045581884 -0.018687725
0.04255355 -0.08255913 -0.039992828 0.0016479106 -0.035515785 0.06319227 -0.05564141 -0.032213867
00000000: 8595 0ebd 3ff5 203d bf97 6bbd fb04 5dbd
00000010: 9866 2c3d 0601 b93d db5c 953b 0017 99bc
00000020: a24c 2e3d c314 a9bd 85cf 23bd b4fe d73a
00000030: 0079 11bd f36a 813d 3fe8 63bd b0f2 03bd

blockB.weight f4 [32, 16, 6, 6]
-0.03444541 -0.09477378 -0.026123194 -0.014601807 -0.095400915 -0.14239854 0.03257212 -0.05452681
0.025312375 -0.0056876284 0.07307423 0.016020412 0.028184472 0.033030644 0.105785355 -0.035969384
0.023604928 0.08978253 0.02937533 -0.007421461 -0.010742134 -0.06359065 0.0033700261 0.07114876
-0.12918402 -0.022951188 -0.001092021 0.00012102581 -0.008905598 0.037486356 -0.03191932 0.05106042
0.048202377 -0.008950211 0.058638692 0.029588236 -0.050321493 -0.06386893 0.090014674 -0.09792232
0.070191115 0.0584067 0.0037552163 -0.041280802 0.003852067 -0.08780868 -0.08884 0.09976003
0.0073847026 0.045473486 -0.04583431 -0.0103352 -0.032051515 0.015694654 -0.096845925 0.030680187
0.009769907 0.07864876 0.018852971 0.050664816 0.049673524 -0.103799514 -0.046813253 0.023565978
0.083370216 -0.012789962 -0.02830627 -0.016194878 -0.046441235 -0.10809077 -0.1351855 0.024141885
0.041775014 -0.035079084 0.039525606 0.0015378993 0.023082385 -0.014956223 0.047363162 0.06001796
0.054639407 -0.09637898 -0.0013678421 -0.022133527 -0.09860347 -0.050190672 -0.13537422 0.08012476
-0.042162064 0.06445553 -0.10370417 0.10002545 0.021600163 -0.036450356 -0.018703971 -0.045137506
0.03753055 0.068439186 0.09217417 -0.0069923103 0.07875138 0.08698078 -0.008784468 0.0035396235
-0.026419722 0.0057201013 -0.016525362 0.02535289 -0.013994749 0.04923272 0.06854266 -0.014997107
-0.062970206 -0.090208106 -0.045432854 0.045417316 0.06811173 -0.018662257 0.07577726 0.027035413
-0.010130925 0.04671258 -0.0024460703 0.08727927 0.036853608 0.06838619 0.007418401 0.09554779
0.065864034 0.14758283 -0.0074678324 0.088113405 -0.0369596 0.026862483 0.1226185 0.14223821
0.071441054 0.04551055 -0.11187552 0.07240555 -0.09243972 0.0011002101 -0.04645013 -0.1924395
-0.016787149 -0.005003577 0.0023124877 0.013909442 -0.024865098 0.10901294 0.018296868 0.024857856
0.07565629 0.055687044 -0.0010537903 -0.055938523 0.062349383 0.061862487 0.06883064 0.010731549
0.056730572 -0.0042303097 -0.14774348 0.032057617 -0.04804332 0.043215822 0.025822958 0.11732716
0.11210377 0.029465038 0.08866038 0.07102606 0.102512866 0.016185135 -0.04796693 -0.008859525
-0.052035246 -0.06388368 -0.06319287 -0.021132402 -0.009932032 -0.050308175 -0.076606125 -0.07787698
-0.08845865 -0.02530538 -0.008187918 0.052228052 0.070030704 -0.02363649 -0.061544508 -0.01621403
0.04484098 -0.13926657 -0.083919115 0.028599327 0.008551604 -0.053268448 -0.064021006 -0.00022895461
0.08199889 -0.09883376 -0.084214024 0.034052417 -0.01440961 0.014310785 0.024958918 -0.08507202
0.06018425 -0.08603692 0.12347881 -0.048346177 -0.07450614 -0.082087025 -0.030586394 -0.06681909
-0.10636051 -0.014572294 -0.022926034 -0.073253095 -0.06675789 -0.004360276 -0.015329509 0.07290116
-0.045706496 -0.06728649 0.027241629 -0.03440009 0.04580812 -0.016928673 -0.008056063 -0.06151009
0.044645716 0.061911725 0.02391117 0.058540594 -0.049961552 -0.019613614 0.001106547 -0.018740544
0.06619541 -0.0683763 -0.05042841 -0.012251008 -0.023402773 0.009712147 0.11479766 -0.092755355
-0.004157969 0.05235368 -0.04355872 -0.07165341 -0.09533718 -0.061609786 -0.031921078 -0.118186034
00000000: a116 0dbd c118 c2bd 4f00 d6bc 6b3c 6fbc
00000010: 8e61 c3bd ecd0 11be 586a 053d 8157 5fbd
00000020: e65b cf3c 495f babb f1a7 953d 3d3d 833c
00000030: 1fe3 e63c 244b 073d fea5 d83d a254 13bd
00000040: 1f5f c13c e7df b73d 88a4 f03c ba2f f3bb
00000050: c7ff 2fbc d13b 82bd a8db 5c3b 71b6 913d
00000060: d148 04be 2104 bcbc 2522 8fba 3dcf fd38
00000070: c9e8 11bc 4b8b 193d d5bd 02bd bb24 513d
00000080: db6f 453d e8a3 12bc 202f 703d 0763 f23c
00000090: e91d 4ebd b7cd 82bd 9d59 b83d 7f8b c8bd
000000a0: 5cc0 8f3d dd3b 6f3d 131a 763b 0f16 29bd
000000b0: f672 7c3b 0ad5 b3bd bff1 b5bd fd4e cc3d
000000c0: 60fb f13b 6842 3a3d c2bc 3bbd f854 29bc
000000d0: 7348 03bd 1392 803c 2857 c6bd 0455 fb3c
000000e0: f611 203c 9a12 a13d 8c71 9a3c e985 4f3d
000000f0: 7776 4b3d d794 d4bd 41bf 3fbd 700d c13c
00000100: 01be aa3d fd8c 51bc 8de2 e7bc 1fab 84bc
00000110: 2a39 3ebd b25e ddbd 116e 0abe 34c5 c53c
00000120: 471c 2b3d 16af 0fbd 9ae5 213d 5693 c93a
00000130: 4517 bd3c f20a 75bc e0ff 413d 64d5 753d
00000140: 92cd 5f3d 5862 c5bd 2a49 b3ba 5f51 b5bc
00000150: 9ef0 c9bd bc94 4dbd 8a9f 0abe 7318 a43d
00000160: 21b2 2cbd 4301 843d da62 d4bd 25da cc3d
00000170: d3f2 b03c f84c 15bd 1239 99bc 1be2 38bd
00000180: a2b9 193d d829 8c3d d0c5 bc3d c01f e5bb
00000190: 6748 a13d fb22 b23d bbec 0fbc 07f9 673b
000001a0: 2c6e d8bc b06f bb3b 3260 87bc ddb0 cf3c
000001b0: 3b4a 65bc 40a8 493d 1860 8c3d 6db6 75bc
000001c0: 86f6 80bd 07bf b8bd cd17 3abd 8207 3a3d
000001d0: 2a7e 8b3d 97e1 98bc 1c31 9b3d 5f79 dd3c
000001e0: 2efc 25bc b155 3f3d 404e 20bb 79bf b23d
000001f0: cff3 163d 0f0e 8c3d 0f16 f33b 8fae c33d
00000200: b9e3 863d f41f 173e b8b4 f4bb cd74 b43d
00000210: f362 17bd b60e dc3c 681f fb3d e5a6 113e
00000220: b04f 923d 4569 3a3d fe1e e5bd 5c49 943d
00000230: 0951 bdbd ed34 903a 7e42 3ebd dc0e 45be
00000240: 3485 89bc 0cf5 a3bb 1b8d 173b 6ee4 633c
00000250: e4b1 cbbc 2d42 df3d 50e3 953c b4a2 cb3c
00000260: aff1 9a3d 1918 643d 561f 8aba cb1f 65bd
00000270: 1162 7f3d 8563 7d3d 14f7 8c3d 61d3 2f3c
00000280: 515e 683d 699e 8abb 114a 17be d94e 033d
00000290: 13c9 44bd 1303 313d ab8a d33c 3949 f03d
000002a0: a996 e53d aa60 f13c 9393 b53d 1c76 913d
000002b0: 44f2 d13d b096 843c f978 44bd 8b27 11bc
000002c0: e922 55bd 72d5 82bd 436b 81bd dc1d adbc
000002d0: f6b9 22bc f20f 4ebd ace3 9cbd f77d 9fbd
000002e0: cf29 b5bd 3a4d cfbc 9e26 06bc 15ed 553d
000002f0: 426c 8f3d 50a1 c1bc 1816 7cbd 49d3 84bc
00000300: 2dab 373d e59b 0ebe c9dd abbd 2349 ea3c
00000310: 071c 0c3c 0430 5abd 721d 83bd 8913 70b9
00000320: 09ef a73d 5b69 cabd 6778 acbd 8c7a 0b3d
00000330: 4916 6cbc c877 6a3c a576 cc3c 3d3a aebd
00000340: c383 763d 2034 b0bd 75e2 fc3d a406 46bd
00000350: ad96 98bd 3e1d a8bd 5190 fabc 72d8 88bd
00000360: 8ad3 d9bd a2c0 6ebc 61cf bbbc b805 96bd
00000370: 5cb8 88bd a5e0 8ebb 9f28 7bbc 344d 953d
00000380: bc36 3bbd 80cd 89bd d629 df3c 1ce7 0cbd
00000390: 4ca1 3b3d 00ae 8abc 94fd 03bc 01f2 7bbd
000003a0: 6dde 363d 2697 7d3d 5ce1 c33c 43c8 6f3d
000003b0: 7ca4 4cbd bbac a0bc 8e09 913a c585 99bc
000003c0: 7691 873d e008 8cbd 058e 4ebd 74b8 48bc
000003d0: 2cb7 bfbc b21f 1f3c 091b eb3d 85f6 bdbd
000003e0: 923f 88bb d070 563d a16a 32bd 06bf 92bd
000003f0: 2440 c3bd 8b5a 7cbd adbf 02bd 850b f2bd

blockB.bias f4 [32]
-0.04508953 -0.00010617279 -0.00881874 -0.023480518 0.0214376 -0.019551808 0.03875063 0.021796731
-0.050711583 -0.022061886 -0.013252267 -0.0401756 -0.020256065 0.01612566 0.0061690076 0.03888368
-0.037500344 -0.011052293 -0.021037111 -0.006368487 0.054863464 0.023769457 0.013612305 0.03408195
-0.011455868 0.029327124 0.02346105 -0.018694652 0.007348734 0.034467723 -0.011245619 -0.0361833
00000000: cdaf 38bd 15a9 deb8 7a7c 10bc 375a c0bc
00000010: e89d af3c 1d2b a0bc fbb8 1e3d 0f8f b23c
00000020: f3b6 4fbd 21bb b4bc 0920 59bc 2c8f 24bd
00000030: 0cf0 a5bc f619 843c 6325 ca3b 7e44 1f3d
00000040: f699 19bd ad14 35bc 0556 acbc beae d0bb
00000050: 83b8 603d 2ab8 c23c 2506 5f3c 8499 0b3d
00000060: 65b1 3bbc 703f f03c 6331 c03c 8725 99bc
00000070: a6cd f03b 072e 0d3d 8b3f 38bc f134 14bd

blockC.weight f4 [64, 32, 3, 3]
0.015666768 -0.06397018 -0.0032068316 0.069115005 -0.08763109 -0.09448375 0.19237852 -0.022809494
-0.13039126 -0.04051973 0.06359084 -0.20634733 -0.08789217 0.07487578 -0.103598654 -0.062287707
-0.06522713 0.13246435 -0.02042509 -0.096003145 0.07022866 0.04722694 -0.083097406 -0.055000857
-0.0046724007 0.035167687 -0.07581818 -0.026455354 -0.059728496 -0.11823583 0.10024302 -0.046702143
0.03276646 -0.14973587 -0.13798486 0.041795485 0.05714804 0.010228773 0.17855889 0.12953573
0.17532957 0.20603988 0.043413736 0.021998001 0.09372774 0.15267998 0.12587404 -0.15785688
-0.025513891 -0.009333766 0.18719015 0.05514294 0.03384433 -0.039950885 -0.0133866295 0.09326573
-0.024744133 0.003205763 -0.07303059 0.011062435 -0.101487465 0.018225199 0.03755635 0.02075739
-0.034573335 -0.026852151 0.08933411 0.10317365 -0.017878534 -0.08583942 0.11741109 -0.10513436
0.08780287 -0.010914199 0.12974337 -0.02411848 0.035209544 0.07098699 -0.12508212 -0.05558627
-0.008976062 0.04986002 0.08603906 0.1431669 -0.099740766 -0.014880532 -0.006103143 0.061289396
-0.04154588 -0.1645952 -0.01538796 -0.09492337 -0.0075561423 0.16218324 0.086623676 -0.08136366
-0.0041131577 0.013442588 -0.108323626 0.1453964 0.09195132 -0.07779985 -0.06563609 0.05812445
-0.12257328 -0.081909046 -0.088961504 -0.06642591 -0.10881261 -0.11903467 0.050955415 0.18874063
0.051031224 0.15944304 0.011581993 9.7418124e-05 -0.0022123659 0.023946585 0.10051645 0.069990836
0.0726939 -0.000883248 0.006772034 -0.083646335 0.01864773 0.043793708 -0.050759606 -0.014754688
-0.17663792 -0.045631427 -0.018895024 0.069746 -0.08605624 0.10472069 0.036225356 -0.13125159
0.010094421 -0.027663799 0.031628028 -0.04760356 0.06642586 -0.001230635 0.105997406 0.001607618
0.019064425 -0.040231343 -0.11950387 0.0066584484 -0.11557804 -0.13191786 0.08666691 0.015350092
-0.078300714 -0.28134272 0.0071677323 0.2453613 0.032640256 -0.04818066 -0.12365898 0.057465803
-0.07357725 -0.15406424 0.037756056 0.04957305 0.0972752 0.023843562 0.025935214 -0.022260346
-0.07338448 -0.003526481 -0.05250825 0.08661252 0.076205894 -0.069897726 0.17524868 0.060939774
0.04250529 0.085604124 -0.0030010878 -0.01742635 0.12201336 -0.09693396 0.013230291 -0.032905873
0.083014846 0.04274698 -0.17230813 0.10603014 -0.04695492 0.017578041 0.03850243 -0.009883764
-0.055292875 -0.015711619 -0.146421 0.035508618 0.03967793 0.07374441 -0.06697477 0.012674562
-0.08523964 0.122763604 -0.1316026 -0.035279788 -0.106668085 0.11206862 0.0047424193 0.085408755
0.045722593 0.016813638 0.0698276 -0.11880348 0.02165686 0.018297784 -0.043686114 0.024528868
-0.116832316 0.068657786 -0.041444328 0.018161103 -0.008908325 0.072329044 -0.005262408 0.10115319
0.17532736 0.009040359 -0.03535133 -0.18173803 0.056764867 -0.043497898 -0.0936624 0.03711435
-0.1341973 -0.07683317 0.13699695 0.039952155 0.11680011 0.19283472 -0.1619263 -0.12603897
-0.049545635 0.12649408 -0.04118653 0.14019957 0.006531048 0.10534532 0.118255824 -0.01872335
-0.09299012 0.05446888 -0.16292411 -0.028514018 -0.0829594 -0.05368657 0.05974737 -0.048406526
00000000: 9857 803c cc02 83bd b529 52bb 2b8c 8d3d
00000010: ee77 b3bd b280 c1bd e0fe 443e fada babc
00000020: 4985 05be 04f8 25bd ea3b 823d b74c 53be
00000030: cf00 b4bd 7958 993d 882b d4bd 6521 7fbd
00000040: cd95 85bd bca4 073e 8552 a7bc 4c9d c4bd
00000050: 0bd4 8f3d 0971 413d f92e aabd 9448 61bd
00000060: f01a 99bb fe0b 103d 9046 9bbd e6b8 d8bc
00000070: dea5 74bd a025 f2bd 364c cd3d bf4a 3fbd
00000080: 2036 063d 5c54 19be e74b 0dbe be31 2b3d
00000090: 1014 6a3d 9596 273c 24d8 363e 04a5 043e
000000a0: 9889 333e 1efc 523e 9ad2 313d 2735 b43c
000000b0: 54f4 bf3d 2458 1c3e 20e5 003e 3ca5 21be
000000c0: 8202 d1bc a7ec 18bc c6ae 3f3e 90dd 613d
000000d0: 5aa0 0a3d 8aa3 23bd 9853 5bbc 1a02 bf3d
000000e0: 35b4 cabc c717 523b 1091 95bd 373f 353c
000000f0: a9d8 cfbd 034d 953c b0d4 193d 670b aa3c
00000100: c59c 0dbd 0bf9 dbbc cdf4 b63d b54c d33d
00000110: 0176 92bc 94cc afbd 3a75 f03d af50 d7bd
00000120: fed1 b33d 78d1 32bc 72db 043e 1e94 c5bc
00000130: e237 103d a161 913d 8715 00be 6eae 63bd
00000140: 5510 13bc 053a 4c3d 3f35 b03d 589a 123e
00000150: e344 ccbd 7acd 73bc e0fc c7bb 970a 7b3d
00000160: 032c 2abd a58b 28be c81d 7cbc 2f67 c2bd
00000170: 8499 f7bb 5d13 263e c167 b13d fea1 a6bd
00000180: abc7 86bb 4d3e 5c3c c7d8 ddbd cbe2 143e
00000190: f950 bc3d 8755 9fbd 376c 86bd e713 6e3d
000001a0: b307 fbbd eebf a7bd 7331 b6bd 4f0a 88bd
000001b0: 25d9 debd 73c8 f3bd a0b6 503d 3945 413e
000001c0: 1e06 513d 0945 233e 66c2 3d3c f54c cc38
000001d0: 57fd 10bb a12b c43c 92db cd3d 5b57 8f3d
000001e0: 8ae0 943d c589 67ba f0e7 dd3b c54e abbd
000001f0: 20c3 983c 0861 333d 4ee9 4fbd a6bd 71bc
00000200: 92e0 34be 05e8 3abd bdc9 9abc fed6 8e3d
00000210: 413e b0bd cd77 d63d 0a61 143d d166 06be
00000220: 1263 253c 319f e2bc 648c 013d f3fb 42bd
00000230: 480a 883d 424d a1ba 2b15 d93d b5b6 d23a
00000240: ff2c 9c3c 9fc9 24bd 72be f4bd 1d2f da3b
00000250: 2eb4 ecbd 7a15 07be 6c7e b13d f47e 7b3c
00000260: 205c a0bd 270c 90be 4cdf ea3b fe3f 7b3e
00000270: cab1 053d 1559 45bd eb40 fdbd 4361 6b3d
00000280: abaf 96bd 04c3 1dbe 18a6 1a3d 1c0d 4b3d
00000290: 3838 c73d 9353 c33c 1676 d43c 545b b6bc
000002a0: 9a4a 96bd 891c 67bb e412 57bd e861 b13d
000002b0: d611 9c3d 8a26 8fbd 6474 333e fc9b 793d
000002c0: 071a 2e3d 3751 af3d e6ad 44bb b4c1 8ebc
000002d0: 24e2 f93d 5085 c6bd ddc3 583c 4fc8 06bd
000002e0: b003 aa3d 7517 2f3d 8b71 30be 5426 d93d
000002f0: cd53 40bd d3ff 8f3c b9b4 1d3d 83ef 21bc
00000300: c87a 62bd a7b5 80bc 63ef 15be 7c71 113d
00000310: 5385 223d 4f07 973d 112a 89bd f7a8 4f3c
00000320: 1f92 aebd 7c6b fb3d d5c2 06be 8a81 10bd
00000330: cc74 dabd 3c84 e53d 4c66 9b3b c9ea ae3d
00000340: 9d47 3b3d c1bc 893c c601 8f3d 3d4f f3bd
00000350: ba69 b13c 3ce5 953c 36f0 32bd c4f0 c83c
00000360: c845 efbd 749c 8c3d 87c1 29bd 98c6 943c
00000370: 39f4 11bc 4021 943d 4770 acbb 6729 cf3d
00000380: 0489 333e 041e 143c 8ecc 10bd 8919 3abe
00000390: 4782 683d da2a 32bd 13d2 bfbd 3705 183d
000003a0: 046b 09be b65a 9dbd ee48 0c3e dfa4 233d
000003b0: e534 ef3d 7776 453e 02d0 25be 5c10 01be
000003c0: 5df0 4abd aa87 013e 35b3 28bd 7a90 0f3e
000003d0: 6702 d63b 4abf d73d 1c30 f23d b661 99bc
000003e0: 9b71 bebd c31a 5f3d 94d5 26be 3b96 e9bc
000003f0: 9ee6 a9bd 73e6 5bbd a9b9 743d ec45 46bd

blockC.bias f4 [64]
-0.01475102 -0.040496793 -0.0043300116 -0.051043153 -0.047997795 0.0652634 -0.0010313842 -0.052942123
-0.022566421 0.023702271 0.047439724 -0.038666278 -0.023853755 0.0071709505 0.033321895 0.006722941
0.05445747 0.031182783 -0.0370995 -0.03137376 0.038652763 -0.0042427494 -0.045594525 -0.032204263
0.03073551 0.010981174 0.036116563 -0.03283099 0.04301633 0.015827829 0.04643765 0.018421607
0.011971892 0.017776486 0.04583789 -0.07232334 -0.037554774 0.003116601 -0.035686348 0.01036139
0.00033234438 -0.04946503 0.015247794 0.019422464 0.04821557 0.032491777 -0.042544957 -0.054454546
0.034574773 0.051891528 -0.01737829 0.027441967 -0.03216668 0.019488554 0.061950002 -0.04518037
-0.011853075 -0.006831103 0.03374862 0.051831745 0.00016501705 0.025118705 0.0006072069 -0.051150277
00000000: 43ae 71bc f7df 25bd c5e2 8dbb a012 51bd
00000010: 5699 44bd d1a8 853d 832f 87ba d7d9 58bd
00000020: 37dd b8bc 442b c23c 2850 423d 8860 1ebd
00000030: f368 c3bc 4bfa ea3b 8a7c 083d 1e4c dc3b
00000040: cc0e 5f3d 0973 ff3c a5f5 17bd c681 00bd
00000050: 5c52 1e3d c306 8bbb 53c1 3abd 9ee8 03bd
00000060: 09c9 fb3c 62ea 333c f6ee 133d ca79 06bd
00000070: e431 303d 5da9 813c 6835 3e3d e9e8 963c
00000080: c125 443c fe9f 913c 83c0 3b3d 421e 94bd
00000090: 09d3 19bd e33f 4c3b d92b 12bd d2c2 293c
000000a0: 823e ae39 d89b 4abd e2d1 793c dc1b 9f3c
000000b0: b17d 453d 1916 053d 9f43 2ebd bb0b 5fbd
000000c0: 479e 0d3d 368c 543d ea5c 8ebc facd e03c
000000d0: 35c1 03bd 76a6 9f3c 49bf 7d3d 0d0f 39bd
000000e0: 6633 42bc 72d7 dfbb fe3b 0a3d 864d 543d
000000f0: 6d08 2d39 bec5 cd3c f72c 1f3a f482 51bd

fc1.weight f4 [1, 64]
-0.2018151 -0.3824036 -0.006481488 -0.4493121 0.17470929 0.08867183 -0.3058195 -0.17578404
0.068526044 0.2066451 0.16618976 0.06416639 0.061414383 -0.10557275 -0.23623002 0.23756911
0.09012118 0.1157909 -0.09095993 -0.05674539 -0.113541804 -0.030852249 -0.1009244 0.09273002
0.13010432 0.11622398 -0.33392212 -0.09269207 -0.368304 0.07741193 0.114815846 0.23809785
-0.085979745 -0.034725443 -0.10515663 -0.011291968 -0.1178666 0.24263012 -0.4182632 0.08573358
-0.16305621 -0.12309643 -0.17512393 -0.3493526 0.13585474 -0.36367023 -0.2467307 -0.1691184
-0.26868692 -0.115928 -0.1483941 0.23396409 -0.06469391 0.1864487 0.048114087 0.09919632
-0.10364916 0.18512979 -0.06593494 0.15849993 -0.067755625 -0.11380764 0.060728658 0.2685169
00000000: 9ea8 4ebe 68ca c3be a962 d4bb 3c0c e6be
00000010: fee6 323e 9499 b53d 6094 9cbe bb00 34be
00000020: 6257 8c3d c69a 533e a62d 2a3e ab69 833d
00000030: a68d 7b3d 8736 d8bd 48e6 71be 5145 733e
00000040: 7491 b83d c823 ed3d 3349 babd db6d 68bd
00000050: 9b88 e8bd dbbd fcbc 74b1 cebd 3de9 bd3d
00000060: 113a 053e d706 ee3d d7f7 aabe 57d5 bdbd
00000070: 5892 bcbe 258a 9e3d 9224 eb3d eccf 733e
00000080: 2616 b0bd 443c 0ebd 5c5c d7bd f201 39bc
00000090: 0b64 f1bd 0874 783e 9826 d6be 1695 af3d
000000a0: 35f8 26be fb19 fcbd b053 33be 58de b2be
000000b0: 811d 0b3e fc32 babe f9a6 7cbe 602d 2dbe
000000c0: 5591 89be a96b edbd 9ff4 17be 4894 6f3e
000000d0: 3e7e 84bd 68ec 3e3e 4713 453d 7127 cb3d
000000e0: 0346 d4bd aa92 3d3e e608 87bd ce4d 223e
000000f0: 76c3 8abd fb13 e9bd 9dbe 783d 0c7b 893e
