Assignment2/Models/CNN_l2.pt (torch, 166159 bytes, 7 tensors)

blockA.weight f4 [16, 3, 9, 9]
00000000: 970c 74bd a251 dfbd a6c8 f23c da4b 91bd
00000010: 3ccd bbbd f24e 82bd 6599 90ba f86f d53c
00000020: a21f 593d ca0d c73a 5222 b13c 2817 d53c
00000030: e541 61bd 4a88 dfbc c5e6 d3bd 2038 a83d
00000040: 48cb ba3d bbb6 7c3c d06d 8c39 2366 88bd
00000050: 40ca 3dbb 6c67 8d3b 95a0 a43b 3298 0abd
00000060: 9554 9c3d ef90 f2bb 0804 33bd 2be1 70bd
00000070: b89d 303d c4e3 47bd d83b 0cbd 0072 aebd
00000080: fab5 73bd 43a0 55be 9c39 41be 02d6 073c
00000090: 9dea 24bd eeb1 0e3e da3f 21be ac1a 723d
000000a0: 51cb d2bc ca62 c83d 77b7 ccbd 5007 253e
000000b0: cb11 47bd 893f 0bbd 651c b43d b334 2f3e
000000c0: ac4b fa3d c887 9bbc e9b6 d23d bae9 c93d
000000d0: 871a a8bd fc24 c03d 13ce 8bbd 76a9 bebd
000000e0: 8f45 f53d 016c a3bd 7c8f cabb 02bb 083e
000000f0: 613f babd aa45 e7bd 5c5b cfbd 1a10 8f3d
00000100: 9f4b 4ebe 8152 adbc 962e b13c 1dc6 a23d
00000110: 54d3 ebbd c568 3a3e ee39 f43c 0803 55bd
00000120: e709 a23b 5c05 f23d 8085 90bd 89e4 893d
00000130: 41fd 283b da2f b6bd 0568 04be c1a7 c73d
00000140: c321 c23c 0936 0e3d a2a8 af3d b9c0 b6bd
00000150: c5fa b2bd 4b65 ca3d 76c1 04be b955 c83b
00000160: 9c4b 99bd a743 943d e866 91bd 4d8b 223d
00000170: 6ed7 0b3d 6ff4 4f3d 2c08 7fbc a36c aebd
00000180: fc39 dc3d 702d 8dbd 792f b53d fc37 013e
00000190: dc87 ddbd cd23 20bb 8411 4d3d 621d 63be
000001a0: 2015 94bd a1dd b63d 9590 073e 4cc6 c63d
000001b0: 7987 ae3c 211b 6f3d 3b37 f03d 60bc bbbd
000001c0: d8ca 493e 55aa a63b d8ca 143e b051 d0bd
000001d0: 7e93 003d ed16 373e da58 173d c21b 38bd
000001e0: 54ee 8e3d 5ff7 1a3e ec06 4f3d e970 ed3d
000001f0: dab1 19bd b353 afbd 2746 4e3e d049 a7bd
00000200: 371d 563e 5f28 2bbd 9b54 013e 72f2 aabd
00000210: e5e5 883d a333 673d be2a 16bd 3179 e9bd
00000220: fc92 873d 09d1 8a3c 8a4e 4abe ba50 a73d
00000230: 3457 6f3d e7bd 6fbb 3fe5 90bd bbdf 133c
00000240: e207 4e3d daef 273e 172b 443d 428e f1bd
00000250: 11ea babb 7664 38bd 1e9b c73d 1d81 8b39
00000260: f3fa 0bbb c637 673a 6556 2a3d 7cfc 073e
00000270: d5f7 fa3d bba4 38bd e7df 0e3c 37ce 4fbe
00000280: 3b29 af3c 0845 36bd 38fc 2d3d fc39 b53c
00000290: 30e6 af3c 2438 98bd ec06 63be 321a 06be
000002a0: bcde 953d f726 0bbe e96b 6abd 65fd ecbd
000002b0: 6467 d83d 46e1 b5bd 03a0 3e3c b786 1fbd
000002c0: 9a7a 1bbd 9be9 48bd 8681 ad3d a686 b33d
000002d0: 2653 813d a4cd 383c 0fd2 5b3c 7daf d0bd
000002e0: be21 39be 4d7a b2bc 14c3 bebc 9f62 66bd
000002f0: b61f 353d a8d5 a8bd bdd5 21bd a57a c53b
00000300: 9bcd 8dbd a12b 45bd 9b5c 65bd b2ef 153d
00000310: b181 9e3d d65d a4bd ae9c 99bd d3ba a2bd
00000320: 6e54 f2bd cace 563b ab25 873d 5b52 963d
00000330: a819 9abd a403 943b ff23 973b 8f91 b7bd
00000340: 2fca f93d fe49 77bd bb2f 863d ad6b 05be
00000350: 4ff7 f6bd 58d1 98bd 26d3 b53d 40fb e93d
00000360: dcc4 6dbe ed3f f53d 922c 8d3d 7e18 653d
00000370: dc6f 813e 800b 1c3e 7dd6 b7bd f7cc d1bd
00000380: 9d29 0cbe 885a 8abd 7cb1 95bc 616c 983d
00000390: 672c de3c 6dc7 933d e0d0 36be 316b 613d
000003a0: 2f72 dbbc f61d 163d aa1c ca3d ae6f 60bd
000003b0: 9a55 5fbd 62cd b43c 3b3f c63c f577 55be
000003c0: e2da 21be 613e a13d 2490 2a3d 3a3b 943d
000003d0: 0c5c 1a3e 1869 36bd 1dde 053e 8023 793d
000003e0: 6e39 2b3e 6cee bfbc 6d4d 1839 d55a 6e3d
000003f0: a954 1cbe d510 c53d 73ff 763c bb76 2b3d
-0.05958232 -0.10904242 0.029636692 -0.07094546 -0.09170005 -0.06362714 -0.0011032043 0.026054367
0.053008683 0.0015186605 0.02162281 0.026012018 -0.054994483 -0.027286667 -0.1034675 0.0821383
0.09120804 0.015424426 0.00026784698 -0.06660106 -0.0028959662 0.0043153074 0.0050240257 -0.03383655
0.0763332 -0.0074025313 -0.043705016 -0.058808487 0.043119162 -0.0488012 -0.03423676 -0.085178375
-0.05949972 -0.20861916 -0.18869632 0.0082907695 -0.040262807 0.13935062 -0.15747014 0.059107468
-0.025731714 0.097844675 -0.09995931 0.16116071 -0.048600953 -0.03399614 0.08794478 0.17109947
0.122214645 -0.018985644 0.102887936 0.09859033 -0.08208185 0.09382054 -0.06826415 -0.09309666
0.11976158 -0.079795845 -0.0061816555 0.13352588 -0.0909412 -0.11292584 -0.10124847 0.06985493
-0.20146035 -0.021157505 0.02162866 0.07947943 -0.11514917 0.18204029 0.02981278 -0.052004844
0.004945028 0.118174285 -0.07056713 0.06733043 0.0025785717 -0.08895846 -0.12930305 0.097487934
0.02369774 0.0347195 0.08577086 -0.08923478 -0.08739237 0.09882601 -0.12964424 0.0061137346
-0.074851245 0.07239466 -0.07099706 0.03968363 0.034140997 0.05077022 -0.015565913 -0.085168146
0.10753247 -0.06893432 0.08846945 0.12619013 -0.10816929 -0.0024435401 0.050065532 -0.22179177
-0.07230592 0.08928991 0.13238747 0.09705791 0.021304833 0.05837548 0.117292844 -0.09166789
0.19706285 0.005086223 0.14530504 -0.10171831 0.03139066 0.17879839 0.03694997 -0.044948347
0.06979051 0.15133427 0.05054371 0.115938015 -0.037523128 -0.08560886 0.20143948 -0.081683755
0.20909582 -0.041786548 0.1262993 -0.08347024 0.06684474 0.05644573 -0.036661856 -0.114000686
0.06619832 0.016945379 -0.19756523 0.08169694 0.058432773 -0.0036581696 -0.07074975 0.0090255095
0.050300486 0.1640009 0.047892656 -0.11794712 -0.0057041724 -0.045017682 0.09746383 0.00026608343
-0.0021359294 0.00088202616 0.0415863 0.13279909 0.122543015 -0.045078974 0.008720375 -0.20293508
0.021381965 -0.044499427 0.042476863 0.022122376 0.021472067 -0.07432583 -0.22170609 -0.1309593
0.07317874 -0.13589083 -0.057231817 -0.11571769 0.10566595 -0.08880858 0.011634829 -0.038946833
-0.03795872 -0.04905091 0.0847197 0.087659165 0.063146874 0.011279497 0.013416781 -0.10189722
-0.18079278 -0.021786833 -0.02328638 -0.056246396 0.044219695 -0.08243877 -0.039510477 0.0060265833
-0.06923982 -0.04813731 -0.05599652 0.036605544 0.077395804 -0.0802571 -0.075005874 -0.0794579
-0.1183251 0.0032777064 0.065989815 0.07339927 -0.07524425 0.0045170356 0.0046124454 -0.0896331
0.121967666 -0.0603733 0.065520726 -0.13029356 -0.12058889 -0.07461804 0.08878164 0.11424875
-0.23219627 0.119750835 0.06893267 0.05593156 0.25280654 0.15238762 -0.08976457 -0.10244172
-0.13687749 -0.06755549 -0.018273108 0.07442547 0.027120782 0.07215772 -0.17853117 0.055033866
-0.026787845 0.036649667 0.098687485 -0.054794006 -0.054524995 0.02207059 0.024200073 -0.20846541
-0.15806153 0.07873226 0.04164137 0.07237859 0.15074176 -0.04453382 0.1307301 0.06082487
0.16721126 -0.023429118 0.00014524693 0.058192093 -0.1526667 0.09622351 0.015075552 0.041861277

blockA.bias f4 [16]
00000000: b2f3 523d 4efa 67bd f237 903c a6dd 8dbc
00000010: 699c 633c b288 b8ba 6bf1 d03b f234 8cbd
00000020: 2afa 8abd 9c9d 123d f7b7 f23c 955f 36bd
00000030: 97d6 0abd 0623 43bd a9be 533d 9aa3 243c
0.051501937 -0.056635194 0.017604802 -0.017317604 0.013892272 -0.0014078824 0.0063764355 -0.06846036
-0.06785996 0.03579484 0.029628737 -0.044524748 -0.033896055 -0.047640823 0.0516955 0.010048771

blockB.weight f4 [32, 16, 6, 6]
00000000: 782d 58bd 13be e8bb c873 173d de8c 53bd
00000010: e97c cc3c 273b 2d3d 2d39 9bbd bf14 babd
00000020: 30ae 973c 80b5 18be 4b3d 38bc 3ac1 2abd
00000030: 28e2 c7bd 3382 9039 b44c 8dbd 50d1 79bd
00000040: 15ef d0bd d83c 183a fa48 4cbd c2d7 e7bc
00000050: 9b27 a9bd 055b 9dbd 8bbf 123b b2e9 033d
00000060: 6243 f93c f7bd a2bd bdbe 1bbd 1450 05be
00000070: 0e8b 91bd a152 b2bd 242b d4bd ebef 1e3d
00000080: cd2c 2b3b 4b78 02bd 319c 883d f163 ca3c
00000090: be1d 043d bf32 1c3d 3ef7 49bc 6d3c 3f3d
000000a0: b823 3dbd 3c07 2d3e 4eb2 9abd 6d89 e7bd
000000b0: a1d6 6d3d 4301 bf3d dbb8 213e 19a5 b63c
000000c0: c94c f4bd 08c3 0abd b2ee 563d 55e1 2fbd
000000d0: 158c 7c3d f592 353d 0878 0ebd d5fb a0bd
000000e0: ffbe 0fbd 8649 91bc d978 9e3d 81b9 c9bc
000000f0: 71fa 943d 822b 433d 0e71 4bbd b53d 873d
00000100: 635a fe3d 1805 773c 07df 1c3d ad3f 413d
00000110: 65c5 3e3d 273f a8bd 170a 59bc 3a53 a03d
00000120: 61f7 b03d f443 a7bc 15cd 213a 4bab 94bd
00000130: 1127 f33c 28fc 823d 5321 08b9 b2c6 393d
00000140: 8564 93bd 5b40 0bbd ab50 8cbd a696 7e3d
00000150: adfd ed3d 9109 eb3c ca15 2d3c 54d8 bf3d
00000160: 521f 863d 9ff9 5bbd 3007 c4bc 0587 b6bc
00000170: 846c 97bd b987 95bd 263f 3bbd 65f3 553c
00000180: 8ed9 95bd b4a2 13bd 51ed 443d 472d 153d
00000190: 80a9 d5bd 26a5 25bd 0291 d93c 52eb e93b
000001a0: edae 5c3d 5d2b efbc 5f42 57ba 2f58 8a3c
000001b0: d2d0 303e 95cc 323e 9fc7 4e3a 6e72 c93d
000001c0: 5884 673d 5831 5abc 2be0 3f3d 66df c73c
000001d0: 7cda b33d b6bb b43d 1124 8e3d 5a49 653d
000001e0: bfdf 833d 320e 71bc be76 5f3d 24f9 943d
000001f0: d32c ec3d 5ac3 3e3d 63c2 753d b028 03bd
00000200: d145 ce3b 9d8d 2b3e 52a0 4b3d 6dc5 d03d
00000210: 3523 8a3c e7ee 243d a7ad a2bd 815f 5a3c
00000220: a34f 053e 39f4 263d 014a 9d3c 8ea0 5ebb
00000230: 61bd 163d 6c20 22bd 5f79 c23c 3e0b 153d
00000240: a329 a73c a3d2 e23d c44d 083c 0918 7dbd
00000250: e326 a03d b1d5 b53d 97b0 793d 01c8 663c
00000260: d0fb fc3d 9bd0 723d 109b 97bd 6c58 373d
00000270: dee1 cf3d 9436 69bc 762f 8cbd b43c 6d3d
00000280: bc46 4d3d 0b03 40bd dc75 923d a105 b13d
00000290: 1f75 633d 72cb 4a3d 07e2 95bc a34f 4cbd
000002a0: 011e bd3d 04ed 70bd 0108 3b3d 23ba 193d
000002b0: 76bc 83bd f41c 993d 8c26 dcbb 03d0 48bd
000002c0: 3138 50bd 3273 e4bc 3661 ae3c 04c9 b03c
000002d0: d46f e5bd d815 f83c 86ec c9bc cd1b 5cbc
000002e0: 3674 bdbd afa2 643d 9c64 b4bd f322 86bd
000002f0: 0e41 d7bd f601 7cbd fd0a 38bc 1ff3 5abd
00000300: bf0e aabc 15ad 60bd 9c72 0abc 6856 b53d
00000310: a7eb e9bc 4183 a1bd 8f83 afbd e2ea 77bd
00000320: 2819 c4bc 7185 533d f0d4 553b 0c1e ea3c
00000330: ad0b 923d e158 e0bc 21ef 923c a83d e83a
00000340: b55f b6bc a131 acbd ce7a 123d b332 483d
00000350: e2af eabc 0895 e3bb 30d6 49bd 42fc 4d3c
00000360: af71 4fbd 9876 a8bd 9997 11bd c005 afbd
00000370: af68 a6bd 8f0a 683c a45f d23c 2c67 7bbd
00000380: 125c c9bd fef1 99bd 0a0a 67bd 969c 15be
00000390: 3292 88bd 8a93 fc3c e222 81bd 58cb a4bd
000003a0: 18d1 1cbd 1c65 9dbd 11c5 e93c 619c aabd
000003b0: f189 49bd 0bb0 a0bd 031d c1bd 2d2a 77bd
000003c0: ec5e 813d 752a 4ebb 9177 a83a 24b6 d2bc
000003d0: b3fc 1ebe 9bba a93d bdc2 0d3c 26ff 223d
000003e0: f924 d8bc 32af e3bc 26c4 2abd fd86 cf3c
000003f0: c3da a33d c8d9 0abd 1a8e 7abc 6b73 a6bc
-0.052777737 -0.0071027367 0.036975652 -0.051648013 0.024961906 0.04229274 -0.07579265 -0.09085988
0.018515676 -0.14912987 -0.011245082 -0.04168818 -0.09759933 0.00027562826 -0.068993956 -0.06099063
-0.10201851 0.0005807406 -0.049874283 -0.028301124 -0.08259507 -0.07683376 0.0022392 0.03220529
0.030427638 -0.07946389 -0.0380237 -0.13018829 -0.07106601 -0.087071665 -0.10359791 0.038803022
0.0026119233 -0.031853 0.06670416 0.024705859 0.032254927 0.038134333 -0.012327014 0.046688486
-0.046176642 0.16897291 -0.0755354 -0.11305509 0.058066014 0.093264125 0.15793173 0.022295522
-0.11928708 -0.033877403 0.05247373 -0.042939503 0.06165703 0.044329602 -0.03478244 -0.07860533
-0.035094257 -0.017735254 0.077378936 -0.024624588 0.072743304 0.047648914 -0.049668364 0.066035666
0.12419584 0.015076898 0.038298633 0.047179867 0.04657497 -0.0821517 -0.0132470345 0.07828374
0.08640934 -0.020418145 0.0006172222 -0.07259234 0.029681714 0.06395751 -0.00012982385 0.045355506
-0.07196907 -0.03399692 -0.06851324 0.06215539 0.116206504 0.028691085 0.010564277 0.09367433
0.065489426 -0.053704854 -0.023929209 -0.02228118 -0.073937446 -0.07301278 -0.04571452 0.013058518
-0.07316886 -0.036043838 0.048077885 0.036420133 -0.1043272 -0.0404407 0.026558403 0.007138648
0.05387776 -0.029195482 -0.0008211489 0.016887752 0.17267159 0.17460854 0.0007888022 0.09836279
0.056522697 -0.0133174285 0.046844643 0.024398517 0.08781907 0.088248655 0.06940473 0.055978157
0.064391606 -0.014712857 0.0545566 0.07274082 0.11531987 0.04657302 0.059999835 -0.032021224
0.006294944 0.1675324 0.04971344 0.10193906 0.016862491 0.040266898 -0.07943278 0.013328434
0.1301866 0.040760253 0.019200327 -0.003397021 0.0368017 -0.0395817 0.023739515 0.036387675
0.020405596 0.11075332 0.008319322 -0.0617905 0.07819917 0.08878649 0.060959425 0.014085771
0.12352717 0.059280973 -0.07402623 0.04476206 0.101505026 -0.014234204 -0.0684499 0.05791922
0.050116286 -0.046877902 0.07151386 0.08643652 0.055531617 0.049510427 -0.018296255 -0.049880635
0.092342384 -0.058819786 0.04566193 0.03753103 -0.064324304 0.074762255 -0.0067184623 -0.0490265
-0.05083484 -0.02788696 0.021286588 0.021580227 -0.1120297 0.030283853 -0.024648916 -0.013434363
-0.09250681 0.05581921 -0.08808252 -0.06549635 -0.10510455 -0.061525308 -0.011233089 -0.053454515
-0.020758985 -0.054852564 -0.008450177 0.08854371 -0.02855475 -0.07886363 -0.08570015 -0.060526736
-0.023937777 0.05164093 0.0032628141 0.02857878 0.07131133 -0.02738613 0.017936291 0.001771857
-0.022262434 -0.084079035 0.035761647 0.048876476 -0.02864832 -0.006945256 -0.04927653 0.01257235
-0.050645526 -0.08225745 -0.035544965 -0.085460186 -0.081254356 0.014162674 0.02568037 -0.06137769
-0.09832014 -0.075168595 -0.05640606 -0.14610514 -0.066685095 0.03083207 -0.063054815 -0.08046597
-0.038285345 -0.07685301 0.028536351 -0.08330608 -0.049203817 -0.078460775 -0.09429362 -0.060342956
0.06316933 -0.0031458412 0.0012853016 -0.025721617 -0.15526085 0.08287545 0.008652386 0.03979411
-0.026384817 -0.0277935 -0.041690968 0.025332922 0.0800071 -0.0338991 -0.015292669 -0.020318707

blockB.bias f4 [32]
00000000: ac6c ef3c 7786 b03c 1fc7 a2bc 92a4 ca3c
00000010: 3377 fd3c bc7b 00bd 55b1 7cbc ebcb e6bc
00000020: 3641 b53c 6485 aebc 2954 633b 8d46 31bc
00000030: dcfa 103d a97c c53c d9e0 5e3c 5c73 6c3c
00000040: bffa 1c3c 6251 1cbd 653c 18bd 73ad 533c
00000050: 8374 be3c 8c66 c3ba 9abc 00bd e8bf c1ba
00000060: 6deb 843b 2606 dcbc 1f81 813c d36e 8bbc
00000070: 254e e53c bf45 c8bc 73c9 ecbc 6969 d8bc
0.029226623 0.021548493 -0.019870339 0.024736676 0.030940628 -0.031368002 -0.015423139 -0.028173408
0.022125822 -0.02130384 0.0034687615 -0.010820043 0.03539549 0.024107294 0.013603413 0.014431801
0.009581267 -0.03816355 -0.03716697 0.0129197715 0.023248916 -0.0014907881 -0.031429864 -0.0014781924
0.0040563853 -0.0268584 0.01580864 -0.017020619 0.027991364 -0.02444732 -0.028904652 -0.026417451

blockC.weight f4 [64, 32, 3, 3]
00000000: 8aed 8abd 1a88 f3bd f18f 74bb 8f60 ab3c
00000010: 406e 90bc 3592 f53b 9875 eebb 82a8 713d
00000020: 4533 f9bd d6ea c9bc 25dc 403d a0d5 e4bb
00000030: f14c c1bd 1433 59bd e854 ccbd 76cf 053e
00000040: 3b80 b43d 565b 6ebd 3175 8e3d ed2e 4dbe
00000050: 7195 34be 971e 853d 87ce ebbd bc6d 8f3c
00000060: dca0 e23d 46e2 dbbc d523 203e e2af 80bd
00000070: d6be f4bd 0309 f53c 5cca afbd 98b4 bb3d
00000080: 5c0b 8d3d 5257 19bb a793 4f3d ddec d5bc
00000090: e44b 64bb 86fa 213d b29f 3f3d a252 373c
000000a0: 4ba3 52bd f22c b43d 7b08 463c 4f50 8dbc
000000b0: d623 983d bb6c 5dbd 8ec5 9cbc 81e1 ac3d
000000c0: 1eb7 a5bd 7063 f0bd f8c3 253c b519 af3c
000000d0: c4fc ffbc f991 973c 59eb 9d3c 62aa 29be
000000e0: c22f 82bd 515e a13d 7bf1 013d 488c 07be
000000f0: 54ce 30ba 08e0 e8bd 5cdf 1c3b 6a56 c23c
00000100: 0b63 653d 9bd7 91bd 9a9f 853c bd3d 56bd
00000110: b4e9 483d 50ac 1f3c 77e3 3ebd 9b6c 17bd
00000120: fed8 9dbb 1dae 923c f116 873d 7d95 f33c
00000130: 08a2 10be a232 4cbd 2df6 243e 2dc5 ff3b
00000140: 02d1 483d ca64 0abd 05c3 2f3c fdd2 b73c
00000150: 5d60 42bd 6a42 833c 635d 1639 b4d0 813c
00000160: 3fb0 873d 5b5d ad3d 9a23 f8bc d166 053d
00000170: 58ce 05be b0c7 cc3c fdc9 8f3d 3e49 aabd
00000180: 89a1 023e 1608 b43d 6925 9cbc 0dcb c9bc
00000190: e500 21bc 48af e8bc 1d76 62bd 63a9 0f3e
000001a0: 9b4b dd3d cd23 d93b 4697 a93c 757a 76bd
000001b0: 4155 0b3e cc74 e2bc 67a7 39bd 9d8b e23c
000001c0: e5d6 8c3c f839 67be ad27 08bd 5a78 74bc
000001d0: 736a 20bb 0595 c3bd 9d95 d33d 4887 243e
000001e0: 5bf2 04bb 7a78 ab3d f600 d9bb 9cde 86bd
000001f0: c05a afbd bb4a b3bc a66b 4c3d 0cf4 e93d
00000200: 75f4 5bbb 9778 f73d c8c1 1e3d 1fbd b03c
00000210: 80bf 1d3e 8a1e 053e 6e8c d4bb ce41 5cbe
00000220: d8a1 393e 452f c7bc df28 4dbd 61e0 163e
00000230: 973c 133e b9ec 793d 7fd5 10bd 7a6a e03d
00000240: d4f7 5dbb bff5 913d 5ca1 18bd e1d8 7bbb
00000250: 51a6 1abe dc95 843d b1e1 b73c 06ac 20bd
00000260: c6c4 4bbd ad69 e9bc 422f ac3d b089 b93c
00000270: d51f c4bd 7b1a f4ba 92de 613c 2e6d bd3d
00000280: 991e 143e b8e0 d43d a5da 8fbb c53d 25bd
00000290: 7fdf f03d 793b 633d 0b4c b2bd 08ee 0ebd
000002a0: 1d3b 81bb d123 b13d 670a 103e 2424 cb3d
000002b0: e017 ad3d 882d 053d 8ba6 0cbd 2e42 9cbd
000002c0: 6298 85bb c677 33bc bf29 d4bd 2941 3d3d
000002d0: f7f4 33bd 8b6e ad3d c609 76bd a2fa 973c
000002e0: 22e7 97bd f417 afbc 5c2e ecbb 7418 0a3e
000002f0: 6ecf fa3d f6c3 963d 6edd 043d 6d7b 81bd
00000300: 8191 a23d fbcd adbc 740e efbd 3b4c febd
00000310: b10b 563c 270c a5bd 4014 51bb e512 793c
00000320: 25c7 83bc 24ca a8bb 67ae a33c adbf 2abd
00000330: 783c 8bbc acbb 61bd 0948 82bd e7f6 e9bc
00000340: 52ff a23b 7fdf a5bd dd7d d4bc af30 f13c
00000350: c8dd bcbd 95b8 80bd 9eb9 623d 0d25 8bbd
00000360: 61ce debb fe0c 193d d077 0d3d f5bc a1bc
00000370: 92ce 94bd 8403 9ebd 8903 953a 0200 7cbd
00000380: 46c4 3d3c d856 4bbc 9d26 86be 6e06 d1bc
00000390: 54e4 00bc ceeb 6abc a788 b7bd ea21 803e
000003a0: 8c47 443e 4e09 fcbb 7e2e 333d 233a 46bd
000003b0: a5c6 003d 3775 92ba 4cc1 553d 784d 293e
000003c0: a1c0 29bd 7c47 1bbe ae07 993d a200 d03c
000003d0: c53b 943d 5b13 5e3d a369 7bbd 4b45 c8bc
000003e0: 49f8 d7bc b5f8 78bc f071 123d 8b7e 70bd
000003f0: dc2d 373b e449 cabd ffdb 533d 6b17 e3bb
-0.06783588 -0.11891194 -0.003731724 0.020920066 -0.017630696 0.007494236 -0.007277202 0.058998592
-0.12167982 -0.024648111 0.047084946 -0.006983474 -0.094385035 -0.053027228 -0.09977132 0.13067421
0.088135205 -0.058192573 0.06955946 -0.20037432 -0.17635132 0.06499975 -0.11514001 0.01750838
0.11065838 -0.026841294 0.15638669 -0.06283547 -0.119504616 0.029911524 -0.08583519 0.09165305
0.06886932 -0.0023397994 0.05067792 -0.026113922 -0.0034835273 0.03954556 0.046783157 0.011189135
-0.05142526 0.08797635 0.012086983 -0.017250208 0.0742871 -0.05405877 -0.01913717 0.08441449
-0.080915675 -0.11737716 0.010117523 0.021374563 -0.031248458 0.018502222 0.019277262 -0.16568902
-0.06356765 0.078793176 0.031724434 -0.13237107 -0.00067446125 -0.113708556 0.0023936843 0.023722846
0.056002658 -0.071212016 0.016311456 -0.052304972 0.049051 0.009745672 -0.046603646 -0.03696881
-0.0048171273 0.01790529 0.065961726 0.029734368 -0.1412431 -0.049852975 0.16109534 0.0078054876
0.04902745 -0.033787526 0.010727649 0.022439474 -0.04745518 0.01602288 0.00014339904 0.015846588
0.06625413 0.08465072 -0.030290414 0.032568756 -0.13066995 0.024997562 0.07020948 -0.08314751
0.12756933 0.08790605 -0.019060807 -0.024632955 -0.009826873 -0.028403893 -0.055288423 0.1402946
0.10805436 0.0066265822 0.020702016 -0.060175378 0.1360674 -0.027643584 -0.045325663 0.027654463
0.017192313 -0.22580707 -0.033240963 -0.014921272 -0.0024477511 -0.095499076 0.10331271 0.1606723
-0.0020286057 0.083725885 -0.006622429 -0.06585428 -0.08562231 -0.02188622 0.04990735 0.11423501
-0.0033562456 0.120835476 0.038759023 0.021574555 0.15405083 0.12999931 -0.006486467 -0.21509477
0.18128145 -0.024314532 -0.050087806 0.14734031 0.14378582 0.061016772 -0.035359856 0.10957809
-0.003386964 0.071269505 -0.03726326 -0.003842883 -0.15102507 0.06473896 0.022446485 -0.039226554
-0.049748205 -0.028492773 0.08407451 0.022648662 -0.09576384 -0.0018623614 0.013785975 0.0924934
0.14464797 0.10394424 -0.004390078 -0.04034211 0.117613785 0.05547664 -0.0870591 -0.034894973
-0.0039438144 0.086494096 0.14066468 0.09919003 0.084518194 0.032514125 -0.034338515 -0.0762981
-0.0040770033 -0.010953849 -0.10359525 0.04620472 -0.04393479 0.0846835 -0.060067914 0.018552128
-0.07417132 -0.021373726 -0.007207675 0.1348589 0.12246595 0.07361595 0.032437734 -0.0632237
0.07937909 -0.021216383 -0.116726786 -0.124168836 0.013064311 -0.080589585 -0.003190294 0.015202259
-0.01608617 -0.00515105 0.019980622 -0.041686703 -0.016996607 -0.05511062 -0.06361396 -0.028560115
0.004974284 -0.08099269 -0.025938923 0.02944216 -0.09221989 -0.06285206 0.0553528 -0.06794176
-0.0067995046 0.037365906 0.03453809 -0.019743422 -0.07265963 -0.07715514 0.0011368851 -0.061523445
0.01158244 -0.012410842 -0.26201335 -0.025515761 -0.007866938 -0.014338447 -0.08961611 0.25025874
0.19167918 -0.007691539 0.04374551 -0.048395287 0.031439442 -0.0011173849 0.052186295 0.16533458
-0.04144347 -0.15163988 0.07472168 0.025390927 0.07237963 0.054217678 -0.06138004 -0.024447104
-0.026363509 -0.015196015 0.03575319 -0.05871443 0.0027950918 -0.09877375 0.051723476 -0.006930282

blockC.bias f4 [64]
00000000: f216 343d e22a 3c3a 3f75 65bc 839c d93c
00000010: cb94 38bc 0ddb 10bd 3984 c13c 9d27 85bb
00000020: dacf 583d 71c3 4cbd 94ce 5a3d ee40 22bd
00000030: 7d2f 75bc fb64 273d 94a8 0c3c f761 4cbd
00000040: 8e30 593d d8df c3bc 6a81 2a3d 9c05 a63c
00000050: 436a 42bd 8e14 de3c 2c4a 223d 4778 0f3d
00000060: 860d 01bd 2ad8 2dbd 444d e4bc ef38 61bd
00000070: 3d43 60bd fbcd 26bd 625f 303d e2a8 373d
00000080: 46f4 713d 6479 0dbd eb0e c33c 2e38 5ebd
00000090: 34db 41bc 57dd 87bb ab8a fdbc 14ea 943c
000000a0: 390f b3bb 7893 ec3c b3ba 033d c9d7 053d
000000b0: ae58 e23c 9de9 3d3b ad8a e83c 1c62 8b3c
000000c0: b651 1f3d 3d64 cd3a ac6d 873c dcd7 edbc
000000d0: ed95 77bb 39bf 2abc 082a eebc 4183 18bd
000000e0: a5bd 56bd 86d3 60bd c3b2 6f3d 411a 69bd
000000f0: 202a 96bc 532e 68bd e9d3 133d 2cf1 d13c
0.043967195 0.0007178021 -0.014005004 0.026563888 -0.011265944 -0.035365153 0.023622619 -0.00406356
0.052932598 -0.049991075 0.053419665 -0.039612703 -0.014964935 0.040867787 0.008585114 -0.049898114
0.05302482 -0.023910448 0.041627325 0.020266347 -0.04746462 0.02710941 0.039621517 0.035026815
-0.031507038 -0.04244248 -0.027868874 -0.054985937 -0.054751623 -0.040723782 0.043059714 0.044838794
0.059070848 -0.034539595 0.023810824 -0.054252796 -0.011832047 -0.004146259 -0.030949911 0.018178023
-0.005464461 0.028878912 0.032160472 0.032676492 0.027630176 0.0028978356 0.028386438 0.017014556
0.038896285 0.0015670132 0.016531788 -0.029033594 -0.0037778572 -0.010421568 -0.029072776 -0.03723455
-0.052426953 -0.054889224 0.05852009 -0.056909803 -0.018330634 -0.056684803 0.036090765 0.025627695

fc1.weight f4 [1, 64]
00000000: a0ce be3c 3228 9abe 2b46 383e 62d7 43bd
00000010: e810 363e e489 4e3d 83db 103d 4f0f 74be
00000020: 9e32 5a3d 18af 46be 1c9a c73d 15be 373e
00000030: 0550 11bd 9f0c 18bf 9898 adbe 0dd0 dbbe
00000040: ea65 cb3e 3f26 c83c 385f c73e 19c8 593d
00000050: 33ce f5bd c33e b13c a002 393d 6f91 42bd
00000060: 44eb 27be e20d 3cbe 89ed cb3e a901 bbbe
00000070: 403d f83d c12a 873e a88c 053e f88b 963d
00000080: d74c 743e ebc4 66be 6ceb 213e 5150 2abe
00000090: a0d9 90be 3618 f4bc 380d 233e 57c2 413e
000000a0: 303a 86bd 906a 353e b01d d2be f791 823e
000000b0: c8db c83d 17cb 64be 9ef0 1dbe 05cd d03c
000000c0: 71b6 8b3e 7e65 e7be 3173 d33c 5709 cf3d
000000d0: 919a 57bc 1ad8 623e a5e3 6a3e 5e55 c3be
000000e0: f0ef 49be 48a2 0bbd 8f55 1d3e 2c9b bd3c
000000f0: 5eb2 a8be 85f3 5c3e e7c7 d13d 2633 8c3e
0.023291886 -0.30108792 0.17995517 -0.047812827 0.17779887 0.05042447 0.035365593 -0.23833965
0.05327093 -0.1940273 0.09746191 0.17943604 -0.035476703 -0.5939426 -0.33905482 -0.42932168
0.39726192 0.0244323 0.38939834 0.053169344 -0.1200222 0.021636372 0.04516852 -0.047501978
-0.1639834 -0.18364671 0.39829662 -0.36524704 0.121210575 0.26399806 0.13041937 0.07350916
0.23857437 -0.22536056 0.15812463 -0.16632201 -0.28291035 -0.0297967 0.15923011 0.18921791
-0.06554067 0.17716432 -0.41038275 0.25501987 0.09807545 -0.22343098 -0.1542382 0.025488386
0.2728763 -0.4519462 0.025811763 0.10109203 -0.01315941 0.22152749 0.22938402 -0.38151067
-0.19720435 -0.03409031 0.1536467 0.02314528 -0.32948583 0.2157727 0.102432065 0.27382773
