Assignment2/Models/CNN_weight_he.pt (torch, 166159 bytes, 7 tensors)

blockA.weight f4 [16, 3, 9, 9]
00000000: b9a3 72bd b929 e13d 5335 54bd 76b3 b1bd
00000010: 1b02 95bc 2417 d4bd 9c55 d03d 4579 d1bc
00000020: 2abf e6bd afe1 2bbd b1d9 40bd 4a74 d73d
00000030: d460 a93d 714b 073d bc89 a73c b57f 14bd
00000040: a53b 9e3c 0a2a 6c3d 9845 db3c dd83 c13a
00000050: 7c79 923d db99 d3bb 4fec a1bd 6374 30bd
00000060: e507 8dbd 7122 a0bd 2ba2 8b3c 0225 ecbd
00000070: 61f5 163e 60ec ea3d 8170 143e 2fd4 673d
00000080: 50fe 4ebd 7ff4 d1bc 5a26 0ebe 5b44 11be
00000090: 8664 85bb dfb5 893d 0db6 94bc baad d3bb
000000a0: f7a4 b83d 44e2 d5bd aac7 71bc 8d74 b23c
000000b0: de2b b93c 9fde 0ebd f07c e33d 1fe8 6a3d
000000c0: c41d 83bd 5ab6 f43d 7fe7 98bd 18a1 b43d
000000d0: 10ae 7d3e bf94 4dbc f0c9 503d f3ac 07be
000000e0: 4450 c0bc f81b 27be 68bd 623d b93b b2bc
000000f0: c81a 1cbe 715f 42bd 97af 243c e6b5 443d
00000100: 9c2e 35bc 6d4d 5cbd 8bad c93c ae42 00be
00000110: f586 6b3d 11f3 b13d b4c8 af3d ea3f 703e
00000120: 2795 0f3d 4c95 5d3e 8859 e4bd 9d06 9fbd
00000130: f0f1 bbbd 290f 883c 398f b43d 6195 523e
00000140: 8ecb 91bc 29a9 b33d cd3b f3bb ef2c e93d
00000150: 0025 c8bc 9494 443d f12a 02be 1703 a4bd
00000160: 01b4 433b b172 7e3d f128 303d 6988 6d3d
00000170: 35d6 f7bd de63 78bd 4220 bdbd 3aee e9bb
00000180: c682 58bd 1528 ce3d 5176 433e a32c 14bd
00000190: 5cc0 ccbd 02b9 e93d 044a 0dbe 4835 8dbe
000001a0: e6fc 34be 04ae 5dbc 0ea8 c8bd 0f46 513e
000001b0: 1bc0 8b3a 59cf eb3d 8812 77bb b9e2 44be
000001c0: 6591 09bc 2f64 99bd f338 cbbc 8a24 283d
000001d0: 1d92 413e 2253 8d3d 28fb 14bd 97f8 933d
000001e0: 805a e73d a2f0 be3c 7090 b4bb 3624 7e3d
000001f0: 3c90 9a3d 5df2 733d 1cb6 3a3e a146 a03d
00000200: ddf0 823e ef7f 223e d7a3 883d ad32 343e
00000210: 35da eebd 2f8b 98bc 0533 97bd 2707 62bd
00000220: 8327 a03d db2e a53d 46ba d3bc 4e78 52ba
00000230: 1ce8 25bd 1576 923e d27a 9abd 6889 1f3d
00000240: 3eea 17bd dedb 0d3e 8bd8 f3bc bc53 17be
00000250: d498 35be eced 3cbd a966 8c3c d0b9 ffbd
00000260: 3159 69bd f452 c73d 489f a9bd eb49 57bd
00000270: cbd6 a9bd 7cc8 813c c306 98bd 59b9 99bd
00000280: 9556 463e 129b 0ebd cfab ecbd ae36 4abc
00000290: c6be 67be cc65 d8bd 9c88 cdbc b365 88bd
000002a0: 2d3b 54bd f7f0 02be 13a4 e3bd 41b5 b1bd
000002b0: 8e21 973c 9fdf 04bd 194c 1fbc ec9e 80bd
000002c0: 1fb7 b73d ff41 9e3d 4f6c 393b ebfa 0f3d
000002d0: 944d 14be f0a4 22bd 454d 1cbd 9e6d 05be
000002e0: 643b 313d f492 eb3d d86f f83d 7039 9bbd
000002f0: 92df 8ebd 666a 5bbd 570a 0cbd 14d0 883c
00000300: 956d 0b3d 5c58 5c3e 9895 a23c 2906 22be
00000310: f345 11be 1218 01bd c1fa 253d 7068 94bd
00000320: b967 603d 652f e43c c352 c63c df67 38bc
00000330: 07a8 f0bc 62d6 f93d c229 21bd 485b 9c3d
00000340: 66e7 0c3e aed8 dcbd ad08 17bd 5f66 cd3d
00000350: 111a f0bd 623c 173d e531 c1bd 1521 0d3e
00000360: 16b8 07be 44fa 73bd 2966 d53d 4c4b efbd
00000370: 271e 193d cc42 8fbd 7bd6 bfbc f07e 723c
00000380: 3a4c e03d e64c bcbd a2d9 19bc fcbe f03d
00000390: 98d3 0d3e ad16 aa3d bda6 d5bd 4ee8 5a3c
000003a0: 71f5 32bd cedc e7bd 8dca 2fbe f084 063e
000003b0: 4612 123d fce3 303e c0df 773d dd28 8abd
000003c0: 6062 12be 2ae8 7e3c 261d 6a3d 7f46 cfbd
000003d0: 8a18 873d b02d 733d 1069 573d a605 4bbd
000003e0: 5781 e7bc 4130 d83d 4479 1abc 5dda 4f3d
000003f0: bdca 03be 2842 3fbd 5e28 b3bd 1ede 61bc
-0.05923817 0.10994286 -0.051808666 -0.086768076 -0.01818948 -0.10355976 0.10172579 -0.025570521
-0.112669304 -0.041963276 -0.047082607 0.10520227 0.082704216 0.03303093 0.020451419 -0.036254603
0.01931555 0.05765728 0.026766583 0.001476403 0.071520776 -0.00645755 -0.079064004 -0.043079745
-0.068862714 -0.07819069 0.017045101 -0.11530496 0.14742042 0.11470866 0.14496042 0.05659884
-0.0505355 -0.02562928 -0.13881817 -0.14186232 -0.004070821 0.06724142 -0.018153215 -0.006459919
0.090158395 -0.10443547 -0.014757076 0.021784091 0.022603925 -0.034880277 0.11107814 0.057350274
-0.06402162 0.11948843 -0.074660294 0.08819789 0.24773431 -0.012547671 0.050973833 -0.13249569
-0.023475774 -0.16319263 0.055356413 -0.021756994 -0.15244591 -0.0474543 0.0100516295 0.048025034
-0.011058476 -0.053784776 0.024618885 -0.12525436 0.057501752 0.08688939 0.08583203 0.23461881
0.035054352 0.21638983 -0.11149889 -0.07764933 -0.09177005 0.016608791 0.0881638 0.20564796
-0.017797258 0.08772499 -0.0074229003 0.113855235 -0.024431705 0.047993258 -0.12711693 -0.08008402
0.002986193 0.062121097 0.043007795 0.05799142 -0.121014036 -0.060642116 -0.09234668 -0.0071389945
-0.05285909 0.10066239 0.19088103 -0.03617538 -0.09997627 0.114122406 -0.13797766 -0.27579713
-0.17674598 -0.013530258 -0.09797679 0.20436881 0.001066211 0.11514158 -0.0037700254 -0.19227113
-0.008396481 -0.07489812 -0.024807429 0.04105047 0.18903394 0.06900622 -0.036372334 0.07225149
0.112965584 0.023308102 -0.0055103824 0.062046252 0.07547042 0.059557308 0.18233532 0.078259714
0.2557439 0.15869115 0.06671875 0.17597456 -0.116627134 -0.018621055 -0.07382778 -0.055182602
0.07820036 0.080655776 -0.025845658 -0.0008028791 -0.04050456 0.28605714 -0.07542957 0.0389494
-0.037088625 0.13853404 -0.029766342 -0.14778036 -0.1773408 -0.046125337 0.017138796 -0.12486613
-0.056969825 0.09732619 -0.082823336 -0.052560728 -0.08292922 0.015842669 -0.07423165 -0.075060554
0.19368966 -0.034815855 -0.115562074 -0.012342138 -0.22631368 -0.10566291 -0.025089554 -0.066600226
-0.051814247 -0.12787233 -0.11115279 -0.086771496 0.018448617 -0.032439824 -0.009722733 -0.06280312
0.089704745 0.077274315 0.0028293317 0.035151403 -0.14482719 -0.039708078 -0.038159627 -0.13030097
0.04326953 0.115026385 0.121307075 -0.07579315 -0.069762364 -0.053568266 -0.03418955 0.016700782
0.034040052 0.21518081 0.019846722 -0.15822662 -0.1418684 -0.031517096 0.04052234 -0.07246482
0.054786418 0.02785463 0.024209386 -0.011255234 -0.029376997 0.121990934 -0.039346464 0.07634598
0.13760146 -0.10783516 -0.03687351 0.10029291 -0.11723722 0.03692282 -0.09433345 0.13782151
-0.13253817 -0.059564844 0.10419876 -0.116842836 0.03738227 -0.06995162 -0.023417702 0.014800772
0.10952039 -0.09194355 -0.009390267 0.117551774 0.13850248 0.08305106 -0.104321934 0.01336105
-0.043691102 -0.11321412 -0.1716711 0.13136649 0.03566196 0.17274469 0.06051612 -0.06746075
-0.1429534 0.015558282 0.057156704 -0.10120868 0.06596477 0.059369743 0.05259043 -0.049565934
-0.028259916 0.10556079 -0.009428326 0.050745357 -0.12870307 -0.04669395 -0.08747934 -0.013785867

blockA.bias f4 [16]
00000000: 3709 5f3d e61a 663d 54ae 993c 2e4e 55bc
00000010: ac1b ffbc 57f8 0cbd 37d6 763d c3e6 6b3c
00000020: 3c2b 3fbd 3d3d da3c ad70 d33c d29c e1bb
00000030: c319 dc3c 392b 5b3d 5e5f fdbb 3e29 113d
0.054452147 0.056177996 0.018759884 -0.013019128 -0.031141125 -0.034416523 0.060262885 0.01439828
-0.04667209 0.026640529 0.025810564 -0.0068851495 0.026867753 0.053508017 -0.007732316 0.035439722

blockB.weight f4 [32, 16, 6, 6]
00000000: 440d 8a3d 7be1 8f3c b096 98bd ea5d 3b3d
00000010: 358d 6e3d 1d56 2ebc d41d 3c3d 5341 9f3d
00000020: 1634 823d 9f03 5f3b 6641 7fbc ac70 cb3d
00000030: 0a62 77bb 84af 58bd 3f9f 4f3c 3025 51bd
00000040: 32a8 9dbd 7baa 433d a9e3 9bbc 0dce 4ebc
00000050: b0a7 31bd 9a84 6e3d d2ee bfbd c151 783c
00000060: 21d8 ee3c be14 62bd 9ad6 4abc 3c1f 593d
00000070: 39ee 23bc 670b 973d 2a6a 30bd 5b9e 83bb
00000080: 8047 ce3d 4f6e ca3d cd69 ca3d 1350 203d
00000090: 4ad3 b9bd d132 6dbd 6069 b73b 273e be3b
000000a0: 0c0c 99bd cbca 8ebd 366d 273d be39 533d
000000b0: 6967 a53d abec a3bd c52c 85bd 4015 723d
000000c0: edac 6e3d 7ee2 fbbc 9203 c0bc 3fc6 fa3d
000000d0: 3b7d 4cbc c2c8 01be 221f 233d d81f d1bc
000000e0: ac04 4a3d 0246 80bd abc4 ddbc 27b8 2d3d
000000f0: 731d 233d b053 9d3c 8984 8b3d 6ba0 f8bc
00000100: 2f53 aebd d7c9 fabc c829 14bd 1444 db3d
00000110: 66d9 82bc 2a8d c13d 5950 c63d 4409 0a3e
00000120: 9623 463d 0d9f 88bd 258b 25ba 08b4 07bc
00000130: 94e4 2abd c070 593d 382d c8bd c276 683c
00000140: ff46 96bc f16e 23be 94fb de3c f37b 9a3d
00000150: 9e55 203b d24e b43c 2b4f 0ebd b18f 4abd
00000160: 9783 92bd 976d fabc ec24 b4bc bd85 36bb
00000170: 997b 063e 42a5 94bc 9fe7 5e3c eca2 2d3d
00000180: be03 08bd af35 dfbc df15 333c 2786 033d
00000190: 6b7d 7dbd 13dd c9bd 7529 4f3d 3f4b 52bd
000001a0: f550 3dbc 0e1b 443d de32 373d b78e 143e
000001b0: f2a4 47bd 2bf7 823d c74f 7b3d e915 23bd
000001c0: ced4 67bd eecc 12bc f847 a83d f893 94bc
000001d0: 2de4 443c 1316 07bd be3d 64bd 3e4b b93c
000001e0: 718c 253e 6aad 25bd 87ea bebc 3880 bc3c
000001f0: 6c3d cebd 02d3 36bd be3a 86bd 403f 9e3d
00000200: e72d 83bd 3e19 87bc 0f44 21bd 0930 61bc
00000210: 0509 3e3d b33a 82bd f394 32bd c519 b3bc
00000220: 2e9a 8bbd 2e41 a1bc 6095 173c 6872 063d
00000230: a13d 16be 9b40 32be c07a 9fbd 58f6 fdba
00000240: 3c45 98bd 0cc4 90bc b584 0cbd 7256 54bd
00000250: 4df6 57bd 5026 f5bc 73a5 37bd 26fb 213d
00000260: 2ff2 ed3b 55a7 8dbd f7b3 253c 3244 ad3c
00000270: acf6 05bd 7234 583c 13f1 71bd e1c7 e83b
00000280: bda1 cd3c 1f53 243c e589 1f3d fc25 673d
00000290: 50e8 8abc 4b90 793d 8d78 eebc 4ed7 10bd
000002a0: bff0 483b 5c71 ccbc d4f7 453d 4d46 93bd
000002b0: 9aad c03d bcdf e53a 4f1e 383d 7766 9cbd
000002c0: 3394 3e3c 5727 feba 87ae 9a3d a77a b3bd
000002d0: 9738 cbbb 6a37 aabd 175a 60bc 0eef 2dbd
000002e0: 5652 243c cc4b 0a3d 4de2 3f3c 242b 67bd
000002f0: 99d2 bd3c cdd3 3c3d 2fdc 0fbd 2f38 aa3d
00000300: 1357 cbbb a85c 913c 13a7 0cbe cfee 2f3c
00000310: 6fb6 da3d 4e47 6c3d e745 343a 8ff9 8d3a
00000320: d76f f9bd 8ef7 393d 7d5f e1bb 46c0 53bd
00000330: e29a 8e3d 0d95 c6bc b07a 533d 9c65 133d
00000340: a92b a3ba 5983 35bd a9a1 d1bc 9c0c 223d
00000350: 6716 a83c ec32 b03d 0c61 373d 58b7 153d
00000360: cd12 303d 2458 9a3d 85ed cb3d 8eed 4e3d
00000370: f85f 183d 85fb c23c 9352 233e d945 a63d
00000380: 3e46 a43d 0848 c2bc a9c5 8c3c f2fe 433d
00000390: d3a8 b53d 679c 8bbd 0aba 173e 2a16 063c
000003a0: e4d7 133e 89b2 503a dbc9 d5bd 91d1 2bbe
000003b0: 7758 e63d 73cf 093b 82ae 1a3d 189a 053d
000003c0: e678 6ebc 9b5b 103d e46d 933d f45d 6d3d
000003d0: d844 863c 85a7 703c 97bd 603b 749c 2ebc
000003e0: cdc2 3f3e 190f 023d afc7 b13d d550 46be
000003f0: c64c c23d f80e d7bd d8e5 363d 83d5 893d
0.067408115 0.017563572 -0.07450616 0.04574386 0.058240134 -0.010640648 0.045926884 0.077761315
0.06357591 0.0034029258 -0.015579557 0.099336 -0.0037747645 -0.05290176 0.012672245 -0.051060855
-0.07698096 0.047770005 -0.019029455 -0.0126223685 -0.04337281 0.058231927 -0.09371723 0.01515621
0.029155793 -0.055195563 -0.012380267 0.053008303 -0.010005527 0.07375222 -0.043069996 -0.00401668
0.10072231 0.09884321 0.09883461 0.039138865 -0.09073503 -0.05790979 0.0055972785 0.005805749
-0.07473001 -0.069722734 0.040875636 0.05156874 0.080763645 -0.08004125 -0.0650268 0.059102297
0.058270384 -0.030747648 -0.023439202 0.12244844 -0.012481029 -0.1267424 0.039824612 -0.02552788
0.04932086 -0.06263353 -0.027071318 0.04241195 0.039823007 0.019204944 0.068123884 -0.03034993
-0.0851196 -0.030613823 -0.03617266 0.10706344 -0.015972804 0.09450753 0.09683294 0.13480097
0.04837378 -0.066709615 -0.00063149846 -0.008282669 -0.041721895 0.053086042 -0.0977425 0.01418847
-0.0183444 -0.1596029 0.027219571 0.07543173 0.0024465094 0.02201024 -0.03474347 -0.04945344
-0.07154005 -0.030569835 -0.021990262 -0.002785071 0.13133086 -0.018145207 0.013605027 0.042391703
-0.033206694 -0.027247278 0.010930507 0.03211036 -0.061887186 -0.0985662 0.050576646 -0.05134129
-0.011554946 0.047877364 0.044726245 0.14507566 -0.04874129 0.063948 0.06135538 -0.039815817
-0.05659943 -0.008959992 0.08216852 -0.018136963 0.012017292 -0.032980036 -0.055722944 0.022618886
0.16166855 -0.040448584 -0.02330519 0.023010358 -0.10070309 -0.044634826 -0.06554173 0.07726908
-0.064052396 -0.016491529 -0.039371546 -0.013744363 0.04639532 -0.06358852 -0.04359908 -0.021862874
-0.06816517 -0.0196844 0.009251922 0.03282395 -0.14671947 -0.17407458 -0.077870846 -0.0019375784
-0.074350804 -0.017671607 -0.034306247 -0.051840253 -0.052725125 -0.029925495 -0.04483552 0.039546154
0.0072615365 -0.06916682 0.010113708 0.021150682 -0.032705948 0.013196098 -0.059067797 0.0071039055
0.025101537 0.010029583 0.038949866 0.05643271 -0.016956478 0.060928624 -0.029110217 -0.03536158
0.0030661074 -0.024956398 0.04833205 -0.07191143 0.09408112 0.0017537992 0.04495078 -0.07636731
0.011632013 -0.0019390386 0.0755282 -0.087636285 -0.0062018144 -0.08311351 -0.013693354 -0.04246431
0.010029396 0.03376369 0.011711669 -0.056437626 0.02317171 0.046100426 -0.035122093 0.083114974
-0.0062054484 0.017744377 -0.13735609 0.010738089 0.10679328 0.05768519 0.00068768713 0.001083182
-0.12179535 0.045402102 -0.006877838 -0.051697038 0.06963135 -0.024240995 0.051630676 0.035985574
-0.0012448925 -0.044314716 -0.02558978 0.039562806 0.020518495 0.086034626 0.044770285 0.036551803
0.04298668 0.07536343 0.09957413 0.05051952 0.037200898 0.023801574 0.15949468 0.08118791
0.0802121 -0.023715988 0.017184095 0.047850557 0.08870091 -0.06816941 0.14817062 0.008183995
0.14437824 0.0007961174 -0.104388915 -0.16779162 0.11247342 0.002102819 0.03776408 0.03261766
-0.014555192 0.03524361 0.07198694 0.05795093 0.01639025 0.014688377 0.0034292692 -0.0106574185
0.18726654 0.03175268 0.08680665 -0.19366772 0.094872996 -0.10500902 0.04465279 0.06730177

blockB.bias f4 [32]
00000000: 2480 b1bc a6d7 db3c 4d3e 54bc 243f 17bd
00000010: 4670 31bc 3391 d839 cd81 34bc 5c40 99bc
00000020: 9934 2f3d 0137 0a3d 7c18 203b 2013 13bc
00000030: f840 1cbd 51ea 823c dc15 cdbc 22cb 40bd
00000040: a22e ac3c 8fdd fb3b d1a6 86bc d627 063d
00000050: 5f8b 03bd ba9e d03c d48b 533c f365 8c3c
00000060: 3b5f c03c c10d ec3c 5407 c6bc 131c 2ebb
00000070: c6c3 afbb 9555 f3bc 3192 fabb 6fe5 24bc
-0.021667548 0.026836228 -0.012954307 -0.03692545 -0.010829991 0.00041306912 -0.011017275 -0.018707447
0.04277477 0.033743862 0.0024428656 -0.008976728 -0.038147897 0.015980871 -0.025034837 -0.047068723
0.02101833 0.007686324 -0.016436966 0.032752834 -0.032115337 0.025466312 0.012911756 0.017138457
0.02348291 0.028815152 -0.024173416 -0.0026567027 -0.005363914 -0.029703895 -0.007646822 -0.010064467

blockC.weight f4 [64, 32, 3, 3]
00000000: 09cb 7f3d 49d5 673d c1fa d7bc da2d b8bc
00000010: 7f0d 133e f23e 06bd aad7 5abd 8118 5e3d
00000020: 1ba2 c3bc 171f 103d d2ed 2a3d 0fe2 16be
00000030: 7dd2 983d 7dd9 ea3d 0c16 f53c b193 40bd
00000040: ce42 cc3d dce2 10bd c883 7ebd b3bd 0e3e
00000050: 5c71 c7ba 2203 7a3d 0864 4cbd 91c9 073e
00000060: 8b43 06be 6acd d4bd a6ad 7e3d 4be0 64bd
00000070: 6d01 ebbd bdf2 f0bd be84 323d 2f0e 8e3c
00000080: e65d 5d3d c051 bfbd 0940 e13d fc48 3a3d
00000090: f1fa a5bd 7f41 6e3c d9e8 a33c 1692 9c3b
000000a0: edda 0f3c d422 3e3c f730 343b 8bbb 233d
000000b0: 52e9 a6bd 54c6 a13d 20ab 06be 89cd 5d3d
000000c0: abd1 f4bd eb9d 123d 6819 e43c 7f12 afbc
000000d0: eb58 61bd 5460 80bd f134 1fbd b14d cabd
000000e0: edc1 063e 6038 a9bb 06c3 983d 9cda 3ebe
000000f0: 6639 88bb b69f 383b 794d 81bd 9bb5 f23d
00000100: bc72 883e bd76 c93d d9b1 57bd c3f0 d13d
00000110: fb94 0e3c 1369 603c 020f 3a3d 34ba 0f3e
00000120: c993 17bd 8235 3a3d 10c0 c6bd fae0 ee3d
00000130: f4c0 67bd 5bc5 3f3e d345 27be 5d24 eebd
00000140: c574 94bc b883 6c3c e0a0 c2bd 50b3 efbb
00000150: 8dd0 6cbe 8b36 a83a cf6e f3bd 51a4 3a3d
00000160: 0198 80bd dfcc d0bc e940 c2bc 550c 32be
00000170: d144 9cbd 0960 233e 6409 97bc 5c6f 123e
00000180: 8c29 b3bd 6ff7 62bd 7a78 ddbd 6d76 00be
00000190: 679b 2fbc 317e 523d 8f46 febb e9ac e23d
000001a0: e119 4d3b 1e58 183c 1ddb 95bc 42ae 37be
000001b0: ff4f eabd 1f0a 173e 7399 9bbd e85b ef3d
000001c0: 76a7 223c 7104 71bd 49f1 c2bd 138f 4abd
000001d0: bf61 1b3e 970a bbbd c3a7 79bd 3ddc 1dbc
000001e0: caaf 22bc 974f 05bd 9895 f7bd ce68 e7bc
000001f0: 9260 043e 6ec5 f0bd 8612 4abe 30b6 583d
00000200: cdc7 873d 2d1f 0ebe 5063 103d 0af5 33bd
00000210: c76d e2bb fefc 4bbc cedb 4f3d 8ee9 d53d
00000220: 214c 13be 74e7 c83d 5f38 fbbc d08f 00be
00000230: 56dd 033e 82e7 923b 0599 12bc d352 1bbd
00000240: 461f 0ebe 61f3 253d 14f2 9c3d 0aec 883d
00000250: 01a6 a9bb 498b 1e3e e977 353d 4e67 19bd
00000260: f65b eabd da1c 793b e87e 463d e23c 953d
00000270: 540d c0bc 6766 03be 5e92 c0bc 4b30 073e
00000280: 649a 7b3d f273 0ebe 288f cfbd 0e9a edbd
00000290: c9f0 173e 44ee c53d c1c3 86bd 67ab 2cbe
000002a0: 6306 02be 1f35 32bd 6fd2 45be 6d35 e5bd
000002b0: a890 86be 20ac 37bc d18b c4bd 0e1b d2bc
000002c0: ef08 85bc e45f 0cbe 2146 553d db02 acbd
000002d0: 6b38 e73d d5d3 9a3d 8a2d 183d a837 0d3d
000002e0: b632 07be 850e 61be c58e f93c fdc3 0c3d
000002f0: f537 71bd 0032 893d 5e7d 8cbd 8528 953d
00000300: 5430 22be 4122 04bd 1db9 443e d2f4 05bd
00000310: a78e 5f3e 9ae1 063e ba21 803e 3c33 d4bc
00000320: 0df3 3b3d 3f8f e7bd 85bd 753d dfff a938
00000330: e6f1 793d d3c6 a83d 0820 bdbc a953 1bbd
00000340: d140 b93d e729 cebd 4d23 8b3d bcd6 053d
00000350: 36f3 96bd 1655 f2bd f326 42be 5383 b1bd
00000360: ae92 9cbd d366 0e3d 2c3b cd3d 7cfc ae3d
00000370: 25cf 813d 0a72 5cbc 7805 233e b6e0 c73d
00000380: d282 f13c 5e5f 50bb dfd5 5a3d 17df 833c
00000390: 70ce 903c db02 16bc e77f f4bd 4564 d1bd
000003a0: 46ad 983d 0b50 2e3e 50e0 8a3d 87a4 21bd
000003b0: a75e b1bb ff25 073c a139 c33d 6c72 263c
000003c0: 6739 2f3d e01c 593d b5dc 0cbe c6ec 8f3d
000003d0: d786 5fbd 46a8 46bd f32b e33d 1fbf 94bd
000003e0: f190 563b 3ed5 83bc b3ed 02be 447b 103e
000003f0: 9d6d 523d b7e6 373d dab8 6fbd e741 0f3d
0.06244949 0.05659989 -0.026364686 -0.022482801 0.14360617 -0.032774873 -0.05342833 0.054222587
-0.023881009 0.0351859 0.04173071 -0.14734672 0.074620225 0.11467264 0.02991774 -0.04701585
0.099736795 -0.0353726 -0.062137395 0.13939552 -0.0015216279 0.061038144 -0.049900085 0.13260485
-0.13111703 -0.10390742 0.062177323 -0.055877965 -0.11474881 -0.11765049 0.043583624 0.017340748
0.054044627 -0.093417645 0.10998542 0.04547976 -0.08104504 0.014541983 0.020008491 0.004778157
0.008780223 0.011604983 0.0027495006 0.039973777 -0.08149971 0.07899156 -0.13151217 0.05415109
-0.119540535 0.035795134 0.027844146 -0.021371124 -0.05501644 -0.06268373 -0.03886885 -0.098781
0.13159914 -0.005164191 0.07459073 -0.1863808 -0.004157233 0.0028171367 -0.06313605 0.11851045
0.26650035 0.09837101 -0.052659843 0.10251 0.008702512 0.013696927 0.04542447 0.14035875
-0.037006173 0.045461185 -0.09704602 0.116640046 -0.0565805 0.18727629 -0.1633523 -0.116280295
-0.018122086 0.014435701 -0.09503341 -0.007315077 -0.23126431 0.0012833638 -0.118863694 0.04556686
-0.062789924 -0.025488315 -0.023712592 -0.17387517 -0.07630313 0.15954603 -0.018437095 0.14300293
-0.08748159 -0.055411752 -0.10813995 -0.12545176 -0.010718203 0.051389877 -0.007759876 0.11068136
0.0031295943 0.0092983525 -0.018292958 -0.17937568 -0.11441039 0.14749955 -0.075976275 0.116874516
0.009927621 -0.058842126 -0.09518678 -0.049452852 0.15174006 -0.09132879 -0.060951006 -0.009635028
-0.009929607 -0.032546606 -0.120890796 -0.028248217 0.12927464 -0.11756407 -0.19733629 0.052908123
0.06629906 -0.1387908 0.03525096 -0.04393486 -0.006910059 -0.012450455 0.05074673 0.10444938
-0.1438451 0.09809771 -0.030666528 -0.1255486 0.12877402 0.0044831643 -0.0089476155 -0.037920784
-0.13879117 0.040515307 0.0766336 0.06685646 -0.00517726 0.1548282 0.04430381 -0.037452035
-0.114433214 0.0038011582 0.04846087 0.07287003 -0.023443855 -0.12832032 -0.023507293 0.13202016
0.061426535 -0.13911417 -0.10134727 -0.11601649 0.14837946 0.09664586 -0.06580306 -0.1686226
-0.12697749 -0.04350769 -0.19318555 -0.11191831 -0.2628224 -0.011210471 -0.0959698 -0.025647666
-0.016239611 -0.13708454 0.052068833 -0.08398982 0.11290058 0.07559935 0.037152804 0.034476906
-0.13202938 -0.21978195 0.030463586 0.034366596 -0.058891255 0.0669899 -0.068598494 0.07283119
-0.15838748 -0.03225923 0.1921124 -0.032704182 0.21831761 0.13171998 0.2502573 -0.025903337
0.04588609 -0.11306619 0.059995193 8.106208e-05 0.061021708 0.08241048 -0.023086563 -0.03792158
0.09045566 -0.10066586 0.067938425 0.03267549 -0.073706076 -0.11832635 -0.1896017 -0.08667626
-0.076451644 0.03476603 0.10021052 0.08544251 0.06338338 -0.013454923 0.15920055 0.09759657
0.029481325 -0.0031795125 0.05342662 0.016097588 0.017676562 -0.009155954 -0.11938458 -0.10224203
0.07454924 0.17022721 0.067810655 -0.039463546 -0.0054128948 0.008248805 0.09532476 0.010159116
0.042779353 0.053006053 -0.13756068 0.07027583 -0.054571953 -0.04850032 0.11092367 -0.07263016
0.00327402 -0.016092893 -0.12785988 0.14109522 0.051374067 0.04489776 -0.058525898 0.03497496

blockC.bias f4 [64]
00000000: 0c23 3d3d f225 27bd 72e4 d6bc 1204 de3c
00000010: 3380 afbc fe45 d43c 9ab4 d1bc 5efa a4bc
00000020: 2dbb 85bc 0b46 103d 884b f03c 636d 53bd
00000030: 1352 363d e803 533c 69c6 373c 7d4c 463a
00000040: d532 5b3c 980c c63c c540 a8bc d05b 5fbd
00000050: 6097 20bd 9bb8 29bd ece1 433d 4447 02bd
00000060: f4a7 03bd b066 1fbd f782 733b af7d 873d
00000070: 789a 4a3d 8d0a 07bd 3ce0 343c f061 383c
00000080: 7455 fd3c 1f47 21bc 7986 48bd 8649 6fbc
00000090: c6db c93c a4ec 47bd cf26 eb3c c053 87bd
000000a0: 52f1 c93c ab8b 6ebd 35a3 533b 9373 e1bc
000000b0: 28af cb3c 5c61 fc3c d32d bbbc 5bc3 d9bc
000000c0: 0011 82bd c52b eb3c eefa 943c d7be 70bc
000000d0: d155 d5bc 3fe0 9abc 80a0 c3bc da66 6a3d
000000e0: 544c 4b3d f62d 1cbd ccc2 ab3c c9d3 c7bb
000000f0: 57a3 55bd 82a6 503c 9267 20bc 9b0b 5abd
0.046176 -0.04080767 -0.026231978 0.02710155 -0.021423435 0.025912281 -0.025598813 -0.020138916
-0.016324604 0.03522305 0.029332891 -0.05161799 0.044511866 0.012879349 0.011216738 0.0007564498
0.0133788185 0.024175927 -0.020538697 -0.05453092 -0.039206862 -0.04143582 0.047822878 -0.031806245
-0.032142594 -0.03891629 0.0037156919 0.06615769 0.04946372 -0.032969046 0.01103979 0.011253819
0.030924536 -0.009843617 -0.048956368 -0.014604932 0.024640929 -0.048809662 0.028705029 -0.06607771
0.024651203 -0.058238667 0.0032293324 -0.02752093 0.024863794 0.030808143 -0.022849 -0.02658241
-0.06350899 0.028707394 0.018186059 -0.014693937 -0.026041897 -0.018905757 -0.023880243 0.057226993
0.04963334 -0.03812977 0.02096691 -0.006098245 -0.052157726 0.012735011 -0.009790318 -0.053233724

fc1.weight f4 [1, 64]
00000000: 26ec 433e cf49 99be 720a bdbd 35b4 cdbd
00000010: 77c9 843e 87bc 943c 72e3 62be c6fb 8d3e
00000020: ecfe 373e a9e7 173d 4527 763e f5ea 59bd
00000030: 2b7a 983e 754f 1abd 622b 963d 70cc 53be
00000040: 7d9f 333e c0a2 57be efaa da3d 69d5 8fbd
00000050: 3b1b 123d 2abe 083d 82cc cabe ab63 693e
00000060: fd27 b03d 4597 4c3d cef6 6fbd b9aa 163e
00000070: 52a9 543d 0c7d 8a3e d930 aabd 821a d53c
00000080: f433 9abd 0118 ab3e 428f a73d 607f 803e
00000090: d50e 2c3d f64e dbbd 9461 33be e026 563d
000000a0: 4347 8a3e da5e b63d a650 c5bc 1661 93be
000000b0: 7214 6dbe 0534 643e d2f4 58be 8d6f dc3d
000000c0: 11e2 71bd cf5c 15be 21af c43c 773e 47be
000000d0: 18ea b7bc c64a 2ebd b10d 83bd 6dad 2b3e
000000e0: 4595 a03d d645 973e 3fbb 8c3e 6d5b db3e
000000f0: a59a aabd e36b db3e 7972 253e feac 50be
0.19133052 -0.29939124 -0.09230508 -0.100441374 0.25934955 0.018156303 -0.22157076 0.2773115
0.17968339 0.037086163 0.24038418 -0.053202588 0.29780707 -0.037673432 0.07332493 -0.20683455
0.17541309 -0.21058178 0.10677134 -0.07023127 0.0356705 0.03338448 -0.39609152 0.22791927
0.08601377 0.04994895 -0.05858498 0.14713563 0.05191929 0.27048528 -0.08310098 0.026013616
-0.075294405 0.3341675 0.08181621 0.2509718 0.042006332 -0.1070842 -0.17517692 0.052283168
0.27007493 0.0890481 -0.024086308 -0.28785008 -0.2315233 0.22285469 -0.21187142 0.10763464
-0.059053484 -0.14586185 0.02400929 -0.19457422 -0.022450492 -0.04255178 -0.06399096 0.16765375
0.07840971 0.29545468 0.27486607 0.4284319 -0.08330277 0.4285575 0.16156949 -0.20378491
