Assignment2/Models/CNN_dropout_conv.pt (torch, 166159 bytes, 7 tensors)

blockA.weight f4 [16, 3, 9, 9]
0	0x3d84364a	0.06455667
1	0xbdc6ad88	-0.09701067
2	0x3d33cad9	0.043894622
3	0x3d1f9959	0.038964603
4	0xbd93df42	-0.072203174
5	0xbe01eefe	-0.12688825
6	0x3dbbad4e	0.091639146
7	0xbd893ffa	-0.06701656
8	0xbd4d2dc8	-0.05009249
9	0xbd9d4712	-0.07679571
10	0xbc062adc	-0.008188929
11	0x3dfc067f	0.123059265
12	0xbd3a1528	-0.045430332
13	0x3e3417c5	0.17587192
14	0xbe15e64a	-0.1463863
15	0xbd8edfeb	-0.06976303
16	0x3d6c9334	0.05775757
17	0xbc986efd	-0.01860761
18	0x3d7e4c19	0.06208429
19	0xbda2c0d2	-0.07946934
20	0x3d1a3252	0.037645645
21	0xbdcd74b1	-0.10032023
22	0xbdbae455	-0.09125582
23	0xbb0d6982	-0.002157778
24	0xbcacfad0	-0.02111569
25	0xbc714b14	-0.014727373
26	0xbe4ed6da	-0.20199147
27	0xbd144345	-0.036196966
28	0x3deaf1c7	0.114718966
29	0xbd6e5eae	-0.058195762
30	0x3dd42929	0.10359413
31	0x3ca7064e	0.020388748
32	0xbdb2367f	-0.087018006
33	0xbd9b0464	-0.07569197
34	0xbdf4766e	-0.11936651
35	0x3c78ce62	0.015185924
36	0xbc01c381	-0.007920147
37	0x3e27c699	0.16384353
38	0xbc25a4d6	-0.010110101
39	0xbca265f7	-0.019824011
40	0xbd9c5b1f	-0.076345675
41	0xbb960723	-0.0045784875
42	0xbe20e102	-0.15710834
43	0x3db6f9bb	0.08934351
44	0xbdac0562	-0.08399464
45	0x3ceacd75	0.028662423
46	0x3d4ef0e2	0.050522693
47	0x3d91d4ed	0.071206905
48	0xbd1f5328	-0.038897663
49	0x3db7393a	0.08946462
50	0xbc1796c7	-0.009252257
51	0xbd7b3f65	-0.061339755
52	0x3dd79b14	0.10527626
53	0xbd39e962	-0.045388587
54	0xbda395b0	-0.07987535
55	0xbd9d8cad	-0.076928474
56	0xbd4d9ae4	-0.050196543
57	0x3dfa643f	0.12226152
58	0x3e100fce	0.14068529
59	0x3d10c60a	0.035345115
60	0x3e64fe4f	0.22362636
61	0xbd27f9e9	-0.041009817
62	0x3e52c6c1	0.20583631
63	0xbddcaec8	-0.107755244
64	0xbc75ffae	-0.015014572
65	0x3d9153cf	0.07096063
66	0xbde5505a	-0.111969665
67	0xbb9fc8f7	-0.004876252
68	0xbd0807c4	-0.03321053
69	0x3abedd90	0.001456188
70	0xbd8d61d4	-0.06903425
71	0x3d9dffaf	0.077147834
72	0x3dfc9d76	0.12334721
73	0xbd0cd322	-0.03438104
74	0xbd9cfe92	-0.07665743
75	0xbdcaf30b	-0.09909638
76	0xbd00339e	-0.031299226
77	0x3dc9c552	0.09852089
78	0x3db58db3	0.088649176
79	0x3df2f405	0.11862949
80	0xbdbba774	-0.091627985
81	0xbddeeb49	-0.10884721
82	0x3e14ce27	0.14531766
83	0xbcc26c0b	-0.02373316
84	0xbd83b542	-0.064310566
85	0x3d0f21f1	0.03494448
86	0x3e3edc70	0.18638778
87	0xbd1ebe2c	-0.03875558
88	0x3bb00647	0.005371842
89	0xbd4945dc	-0.04913889
90	0x3d8200e9	0.0634783
91	0xbad90e60	-0.001656007
92	0xbe06f7e2	-0.13180497
93	0x3e3c5dfb	0.18395226
94	0x3da11979	0.07866187
95	0x3cf92cea	0.030416925
96	0xbbde1878	-0.0067778192
97	0x3d8d40fc	0.068971604
98	0xbd5372af	-0.051623043
99	0x3c87b14d	0.016564036
100	0xbc3dd26a	-0.011585811
101	0x3d1904d4	0.03735812
102	0x3d2aa800	0.041664124
103	0x3d4b6a12	0.049661703
104	0xbd1a1e14	-0.03762634
105	0xbd721215	-0.059099276
106	0x3d41de8f	0.04733139
107	0x3e53f0d6	0.2069734
108	0x3d8b674e	0.06806813
109	0x3e091241	0.1338587
110	0x3e0b0e50	0.13579679
111	0xbae268fe	-0.0017273722
112	0x3de4aadb	0.111654006
113	0xbb5e09d4	-0.003388037
114	0x3e19e676	0.1502932
115	0xbc8043d4	-0.015657343
116	0xbd8dfb45	-0.069326915
117	0x3d9737cc	0.07383689
118	0xbe817c56	-0.25290173
119	0x3db684f0	0.089120746
120	0xbc28030f	-0.0102546355
121	0xbdaf6b23	-0.085653566
122	0xbd77ecec	-0.06052868
123	0x3d997ca2	0.07494475
124	0xbdbaa8d3	-0.09114232
125	0xbc70555d	-0.01466879
126	0xbcadee38	-0.021231756
127	0x3d9f5783	0.077803634
128	0x3dafee98	0.0859043
129	0x3e026bbd	0.12736411
130	0xbdd97323	-0.10617664
131	0xbd1fcbd7	-0.039012756
132	0xbd21e987	-0.03952935
133	0xbd570f5b	-0.05250488
134	0x3d06c2a3	0.032900464
135	0xbcab64ab	-0.020922026
136	0xbdbedb32	-0.09319152
137	0x3ab8e3f1	0.0014106018
138	0x3e1b39e6	0.15158805
139	0x3d34ceb1	0.04414243
140	0x3dd6a184	0.104800254
141	0x3cd0905e	0.025459465
142	0x3d9091be	0.07059048
143	0x3d0d8019	0.03454599
144	0x3db5d855	0.08879153
145	0xbb2f0a07	-0.0026708858
146	0xbd26c182	-0.040711887
147	0x3d29a748	0.041419297
148	0xbd08b362	-0.033374198
149	0xbd263bf0	-0.040584505
150	0x3de851d1	0.1134373
151	0x3d5f494b	0.054513257
152	0x3d758132	0.059937663
153	0xbd8630dc	-0.06552288
154	0x3d8ed66c	0.069744915
155	0xbc3160d8	-0.010826312
156	0xbdf55b54	-0.1198031
157	0xbd46c81c	-0.048530683
158	0x3e1522d2	0.14564064
159	0x3dad0af7	0.08449357
160	0xbccc1bdc	-0.024915628
161	0x3e46ad54	0.19402057
162	0xbdc557ac	-0.09635863
163	0xbd50a18b	-0.05093531
164	0xbd125c9f	-0.03573286
165	0xbdee0744	-0.116224796
166	0x3ddc109f	0.10745358
167	0xbd7b1ea5	-0.06130852
168	0x3dfa1241	0.12210513
169	0x3cf7c6b2	0.030246112
170	0x3e3cf43b	0.18452542
171	0xbe0fdc6c	-0.14048928
172	0xbdb739a7	-0.08946543
173	0x3d6169fd	0.05503272
174	0xbc8324f3	-0.01600883
175	0x3da8e1a9	0.08246166
176	0x3c74ba92	0.01493706
177	0xbd23c614	-0.039983824
178	0x3d5c9437	0.053852286
179	0xbd01ab44	-0.031657472
180	0x3d5fba3d	0.05462097
181	0xbd8d06b1	-0.06886042
182	0x3dcb2608	0.09919363
183	0x3b9af236	0.004728581
184	0x3d11368a	0.035452403
185	0xbd02379d	-0.03179132
186	0xbe34f013	-0.17669706
187	0x3beff7d4	0.0073232446
188	0xbe20e0c1	-0.15710737
189	0xbde81bcc	-0.11333427
190	0x3ddb4a96	0.107075855
191	0xbdb52dc2	-0.08846618
192	0x3dd02437	0.101631574
193	0x3dea0576	0.11426823
194	0xbcb110aa	-0.021614391
195	0xbe5cb00f	-0.21551536
196	0xbdf00e94	-0.117215306
197	0xbb2748e4	-0.0025525624
198	0x3c1b254f	0.009469344
199	0xbd1e163d	-0.038595427
200	0x3d9805d3	0.07422986
201	0xbd84b356	-0.06479518
202	0xbcd03f34	-0.025420763
203	0xbeab9073	-0.33508644
204	0x3bb56962	0.0055362443
205	0xbe5f1622	-0.21785787
206	0x3d7a4a15	0.061105806
207	0x3d20f508	0.03929618
208	0x3d052c89	0.032513175
209	0xbca26c39	-0.019826995
210	0x3e113890	0.14181733
211	0x3d6c51ec	0.057695314
212	0x3cb06648	0.021533147
213	0xbd2349f0	-0.039865434
214	0xbe66329f	-0.22480248
215	0x3e3b9d3d	0.183217
216	0xbd6d069c	-0.05786763
217	0xbd68d02c	-0.056839153
218	0xbe85d8e1	-0.26142028
219	0xbcaeaefd	-0.021323675
220	0xbd06c80c	-0.032905623
221	0xbdce7565	-0.10080985
222	0xbc84b126	-0.016197752
223	0xbe31b6f8	-0.17354953
224	0xbcb9a130	-0.022659868
225	0xbc0d7f2e	-0.008636279
226	0xbe10654a	-0.14101139
227	0x3dd295a0	0.10282445
228	0xbe8bfc7c	-0.27341068
229	0x3d1642d8	0.03668484
230	0xbd9ce761	-0.076613195
231	0x3d72f041	0.059311155
232	0xbca775bc	-0.020441882
233	0x3cd5a3e5	0.026079128
234	0xbd65c7c4	-0.056098714
235	0x3dfc1238	0.123081625
236	0x3de3529d	0.110997416
237	0xbbe61e67	-0.007022667
238	0x3c75305d	0.014965144
239	0x3db36b56	0.08760707
240	0xbde12cae	-0.1099485
241	0x3ba1abd4	0.0049338136
242	0x3e1e6a82	0.15470317
243	0xbda0e4a7	-0.07856112
244	0xbe15a276	-0.14612755
245	0xbdb984c7	-0.090585284
246	0x3d3a6e3a	0.045515276
247	0x3e151ef2	0.14562586
248	0xbd8ea991	-0.06965936
249	0x3d0a4fa0	0.033767343
250	0x3d39907d	0.04530381
251	0xbe0fd08e	-0.14044401
252	0x3cbfb2a1	0.023400607
253	0x3e59ae3e	0.21257874
254	0xbd99f798	-0.07517928
255	0xbe51abea	-0.20475736

blockA.bias f4 [16]
0	0xbd3db9e1	-0.046319846
1	0xbc4c1692	-0.012456553
2	0x3da013e1	0.078162916
3	0xbd961c79	-0.073296495
4	0xbda24e3c	-0.07925078
5	0xbcc72110	-0.024307758
6	0xbd498fd7	-0.049209442
7	0xbd6f4fe0	-0.058425784
8	0xbd75a6d0	-0.059973538
9	0xbbc32dbe	-0.0059563806
10	0x3b927c76	0.0044704033
11	0x3bf477a2	0.0074605504
12	0xbb0df93f	-0.0021663455
13	0xbc7cf4bb	-0.015439208
14	0xbd686e33	-0.05674572
15	0xbb44f510	-0.0030053295

blockB.weight f4 [32, 16, 6, 6]
0	0xbb839433	-0.0040154695
1	0xbdb2175f	-0.08695864
2	0x3c74c4c5	0.014939492
3	0xbdc990c7	-0.09842067
4	0xbdbd3d37	-0.092401914
5	0x3c8d020b	0.017212888
6	0xbc44db54	-0.0120151825
7	0x3d303446	0.0430186
8	0x3d661bfa	0.056179024
9	0xbdae20cc	-0.08502349
10	0xbd0a5bce	-0.033778958
11	0xbd66c141	-0.056336645
12	0xbdddb562	-0.10825612
13	0xbcdddbe4	-0.027082391
14	0xbd55aa69	-0.05216447
15	0x3d19f4ac	0.037586853
16	0xbd39d28e	-0.045366816
17	0xbdef27eb	-0.116775356
18	0xbb2017b9	-0.0024428202
19	0x3cf37f0f	0.029723672
20	0xbd62b929	-0.055352364
21	0x3c8ac43b	0.016939273
22	0xbd5f08ef	-0.05445188
23	0xbd512f4a	-0.05107049
24	0x3c8d6ab3	0.017262792
25	0x3bf7ab54	0.0075582657
26	0x3d4345ac	0.047673866
27	0x3c9af351	0.01891485
28	0x3cfd4747	0.030917777
29	0xbc94c97f	-0.018162487
30	0x3de00448	0.109383166
31	0x3ce3d258	0.02781026
32	0x3da8fb47	0.08251052
33	0xbc6e3990	-0.014540091
34	0xbd5424ff	-0.051793095
35	0x3be49787	0.0069760713
36	0x3c9c5179	0.019081818
37	0xbd39e5b5	-0.04538508
38	0xbba4990b	-0.005023127
39	0xbd74d1f1	-0.05977053
40	0xbd79fb1a	-0.061030485
41	0x3c7c6eb9	0.015407258
42	0xbd3d5cd0	-0.04623109
43	0x3cdfe00d	0.027328515
44	0xbe3bae67	-0.18328248
45	0xbda4f54f	-0.080546014
46	0x3d898de0	0.06716514
47	0x3da6e27d	0.08148668
48	0x3e1dd661	0.1541381
49	0x3d1b1b38	0.037867755
50	0x3dd515f2	0.10404576
51	0xbd4efa0d	-0.050531436
52	0xbccd938f	-0.025094775
53	0x3d6b1d93	0.05740125
54	0xbd2c4166	-0.042054556
55	0xbc5d7815	-0.013517399
56	0xbcc49e1b	-0.024001172
57	0xbc8fef40	-0.017570138
58	0xbd12eb35	-0.035868842
59	0xbd888216	-0.06665437
60	0x3ce7c100	0.028290272
61	0xbd6ecc37	-0.058300223
62	0xbd7a6442	-0.06113077
63	0x3c4e16b4	0.012578655
64	0x3ce49870	0.02790472
65	0xbdb1f662	-0.08689572
66	0x3c45179a	0.012029553
67	0x3da30c1a	0.079612926
68	0xbc33d3a2	-0.01097575
69	0x3dbf8bc8	0.09352833
70	0x3b83ddd5	0.004024247
71	0x3d37764a	0.044790544
72	0x3da68953	0.08131661
73	0x3ccfe053	0.02537552
74	0xbd2a921f	-0.04164326
75	0x3d401d4f	0.04690295
76	0xba948fb6	-0.0011334333
77	0xbc907465	-0.017633626
78	0xbce521d3	-0.02797023
79	0xbd5b2ba6	-0.053508423
80	0x3ce62020	0.02809149
81	0xbe14f396	-0.14546046
82	0x3c30f93a	0.010801608
83	0xbdb46bea	-0.088096455
84	0xbd69fc7e	-0.05712556
85	0xbd2898a6	-0.041161202
86	0x3cbbe949	0.022938387
87	0x3db675e9	0.08909208
88	0x3b05298a	0.0020318949
89	0xbbe01075	-0.0068378993
90	0xbda4884a	-0.080338076
91	0xbc1a472d	-0.009416384
92	0xbd1b2e7c	-0.037886128
93	0xbd9cf534	-0.07663956
94	0xbda81755	-0.08207575
95	0xbc8e9184	-0.017403372
96	0xbd9749fb	-0.073871575
97	0xbc13f59c	-0.009030726
98	0xbc339223	-0.010960135
99	0xbcab55a3	-0.020914858
100	0x3cfcc6b0	0.03085646
101	0x3ca43e03	0.0200491
102	0xbd9b85f4	-0.07593909
103	0x3d701c71	0.058620874
104	0xbd76c30c	-0.060244605
105	0x3c0e81f3	0.0086979745
106	0xbc4c3629	-0.012464085
107	0xbe01845c	-0.12648147
108	0xbdc10016	-0.094238445
109	0x3c875703	0.016520983
110	0x3d370f05	0.044692058
111	0x3d38c37e	0.04510831
112	0xbd4a0f21	-0.049330834
113	0x3ccc0d2b	0.024908623
114	0x3d263049	0.040573392
115	0xbd209838	-0.039207667
116	0x3c17cb88	0.009264834
117	0xbcef5259	-0.029214071
118	0x3d287915	0.041131098
119	0xbd54d2ca	-0.051958837
120	0xbdb4d61d	-0.08829901
121	0xbe11cfa1	-0.1423936
122	0xbc37efcd	-0.011226607
123	0xbcc8b301	-0.024499418
124	0xbd4652c8	-0.04841879
125	0xbd281b55	-0.04104169
126	0xbd943ee3	-0.07238557
127	0xbd015fe4	-0.03158559
128	0x3ba0f102	0.004911543
129	0xbc5a3168	-0.013317443
130	0xbd2c4413	-0.042057108
131	0xbc4ba0be	-0.012428461
132	0x3d32d549	0.043660436
133	0x3d5ae64a	0.053442277
134	0x3b0db1c3	0.0021620847
135	0xbc376a8d	-0.011194837
136	0x3ba9df4a	0.005184089
137	0xbbca2d80	-0.006169975
138	0xbd78c1ea	-0.060731806
139	0xbd399dbb	-0.04531644
140	0xbc32d310	-0.010914579
141	0x3d181629	0.03713051
142	0xbbcc9b26	-0.006244081
143	0xbdf6d7e7	-0.12052899
144	0xbe0fee80	-0.14055824
145	0xbd98a633	-0.07453575
146	0x3d3d733c	0.046252474
147	0x3ca2076b	0.019778928
148	0xbb47af0c	-0.0030469326
149	0xbc2b7a62	-0.01046619
150	0xbd153a83	-0.036432754
151	0xbd496940	-0.04917264
152	0x39b65fbb	0.0003478507
153	0xbda05607	-0.078289084
154	0xbdb61a20	-0.08891702
155	0xbd912e9e	-0.0708897
156	0x3d0fa972	0.035073705
157	0xbdd00d64	-0.10158804
158	0x3d0ed3b2	0.034869857
159	0x3d09d508	0.033650428
160	0xbdd866a0	-0.10566449
161	0xbd15ff1b	-0.03662024
162	0x3d998d9f	0.07497715
163	0xbd56a207	-0.052400615
164	0x3c97145e	0.018442329
165	0x3d98a1a3	0.07452705
166	0xbddd80db	-0.10815593
167	0xbe257de5	-0.16161306
168	0xbdfca74b	-0.12336596
169	0xbd39f6c4	-0.04540135
170	0x3b8a572c	0.0042218175
171	0xbd0f0ee3	-0.034926306
172	0x3a8beaef	0.0010674874
173	0xbd86f307	-0.065893225
174	0x3d7a4f11	0.06111056
175	0xbcd56308	-0.026048198
176	0xbd640553	-0.05566914
177	0x3ce14a79	0.027501332
178	0xbddc2540	-0.107492924
179	0x3922beaa	0.00015520552
180	0x3c98f58b	0.018671772
181	0xbda2ce79	-0.07949538
182	0x3d325c95	0.043545324
183	0x3d5c01a8	0.053712517
184	0xbcd8c44f	-0.026460795
185	0x3db54aa1	0.08852125
186	0x3c7f60bd	0.015587029
187	0x3d416c4b	0.047222417
188	0x3cda4813	0.026645696
189	0x3dae8541	0.0852151
190	0x3c0f7201	0.008755208
191	0xbd3c125a	-0.04591594
192	0x3d2b92e6	0.04188814
193	0x3ba823b8	0.005131211
194	0xbb50d7d6	-0.003186693
195	0x3d89dc77	0.067315035
196	0xbc74a9c9	-0.014933058
197	0xbd08719f	-0.033311483
198	0x3d01ee2a	0.03172127
199	0xbd5cd187	-0.05391076
200	0x3d199480	0.037495136
201	0xbdaebd89	-0.08532245
202	0xbd961db9	-0.07329888
203	0x3c81df52	0.015853558
204	0x3ad020f0	0.0015878957
205	0xbc711476	-0.014714351
206	0x3c02dc53	0.0079871
207	0x3d22bd78	0.039731473
208	0x3d8573fd	0.06516264
209	0xbd8a103a	-0.06741376
210	0xbd876b77	-0.06612294
211	0xbda1db41	-0.079031475
212	0xbd860677	-0.06544202
213	0x3d058b06	0.032603286
214	0xbd8084c3	-0.06275322
215	0xbd39b363	-0.045337092
216	0xbdbb41ec	-0.09143433
217	0xbd851282	-0.06497671
218	0x3c9a6d03	0.018850809
219	0x3dacf85f	0.084458105
220	0xbd49d663	-0.04927672
221	0x3b6b3d2c	0.0035894616
222	0xbdd4ecd1	-0.10396732
223	0xbd3547a3	-0.04425777
224	0xbd885288	-0.066563666
225	0x3c0f0099	0.00872817
226	0x3d856afa	0.06514545
227	0xbd486df9	-0.048933003
228	0xbde115d1	-0.10990489
229	0xbdc35f99	-0.09539718
230	0xbb43e859	-0.0029893129
231	0x3ce8470f	0.028354196
232	0x3d0898d8	0.03334889
233	0xbbec315d	-0.007208033
234	0x3cc47008	0.023979202
235	0xbde7718a	-0.11300953
236	0x3c43ec90	0.011958256
237	0x3d03555c	0.032063827
238	0xbd8d44ef	-0.06897914
239	0x3ce26a3f	0.027638553
240	0xbd1fa253	-0.038973164
241	0xbd3d122e	-0.046159916
242	0x3dab415a	0.08362074
243	0xbb2c3824	-0.002627858
244	0x3b959672	0.0045650536
245	0xbced9310	-0.029000789
246	0xbd9e57ad	-0.077315666
247	0x3c7cfad7	0.015440664
248	0x3e1c48a2	0.15262082
249	0x3d18d262	0.03731001
250	0x3c697090	0.014248028
251	0xbdde08f3	-0.10841551
252	0x3b4979c2	0.003074274
253	0xbdc62e7d	-0.09676836
254	0xbd8f411c	-0.069948405
255	0xbdca0fa8	-0.098662674

blockB.bias f4 [32]
0	0x3d228759	0.03967986
1	0x3cfbc918	0.030735537
2	0xbc378017	-0.011199973
3	0x3ca7a2b1	0.02046332
4	0xbd3ea309	-0.0465422
5	0x3d9c07da	0.07618685
6	0xbcc4a547	-0.024004592
7	0xbd51bdf8	-0.05120656
8	0xbba662f0	-0.0050777122
9	0x3c1858d3	0.009298521
10	0xbbf6fa27	-0.0075371447
11	0xbce75362	-0.028238002
12	0xbbf92b8b	-0.0076040677
13	0x3c13a942	0.009012522
14	0xbcf34e01	-0.029700281
15	0x3c5333cc	0.012890767
16	0x3b28c8d9	0.002575448
17	0x3c650789	0.013978847
18	0x3d834475	0.064095415
19	0x3c819f94	0.015823163
20	0xbd00e255	-0.031465847
21	0xbca7cfac	-0.020484768
22	0xbd1925b1	-0.03738946
23	0x3d4274ba	0.0474746
24	0x3d0a1cd2	0.03371889
25	0xbcf3951f	-0.029734192
26	0x3d1a420e	0.03766065
27	0xbc2bd396	-0.010487458
28	0xbd6200d0	-0.055176556
29	0xbc239709	-0.00998474
30	0xbc2878e7	-0.010282732
31	0xbc513da3	-0.012771043

blockC.weight f4 [64, 32, 3, 3]
0	0x3e54be12	0.20775631
1	0xbd8510b1	-0.06497324
2	0xbd6724d6	-0.056431614
3	0x3c6243a2	0.01381007
4	0x3e530216	0.20606264
5	0x3d4d9df5	0.050199468
6	0x3c1caeb0	0.009563133
7	0xbe1a636e	-0.15076992
8	0x3d507c37	0.05089971
9	0xbd410b66	-0.04713001
10	0x3d4724b5	0.04861899
11	0x3dfec7b4	0.12440434
12	0x3cce3edb	0.025176456
13	0x3df8f7c2	0.12156631
14	0xbd87d877	-0.06633084
15	0x3d51ca7c	0.051218495
16	0x3dff9b7c	0.12480828
17	0x3d9a1ac0	0.075246334
18	0x3d50e9e2	0.051004298
19	0xbcea7ea1	-0.028624834
20	0x3cb310c5	0.021858582
21	0x3d2533ea	0.040332712
22	0xbd5fc956	-0.05463537
23	0x3d8d1acc	0.06889877
24	0xbd1b9ca2	-0.037991174
25	0xbd92ef5e	-0.07174562
26	0x3db7fe71	0.08984078
27	0xbcd4eb5b	-0.025991132
28	0xbb8cb20f	-0.004293687
29	0x3d37f4e9	0.0449113
30	0x3b60a2d1	0.0034276734
31	0x3d3153f2	0.043292947
32	0x3e0caea9	0.13738503
33	0x3de55bb1	0.111991294
34	0x3d2143c0	0.039371252
35	0x3baa792c	0.005202433
36	0xbd906bbf	-0.07051801
37	0xbd42d529	-0.047566567
38	0x3becc215	0.007225285
39	0xbcd3dce2	-0.025862161
40	0x3d0a02f2	0.033694215
41	0xbdc4a666	-0.096020505
42	0x3d3750a9	0.044754658
43	0x3e29bc29	0.16575684
44	0xbd9b44e5	-0.075815
45	0xbc3e6d98	-0.011622809
46	0x3d8f9d11	0.0701238
47	0x3e08baec	0.13352555
48	0x3d0a505f	0.033768054
49	0x3def2f19	0.11678905
50	0xbd87b582	-0.06626417
51	0x3e269ea0	0.16271448
52	0x3ca81554	0.020517983
53	0x3d46c023	0.04852308
54	0x3cee9569	0.029123979
55	0x3d9c9303	0.07645228
56	0x3cca6501	0.024706366
57	0x3cae9a0d	0.021313692
58	0x3bcd976d	0.006274155
59	0x3cfe7dcb	0.031065842
60	0xbd9e163a	-0.07719083
61	0x3d31ba02	0.04339028
62	0xbdb21b57	-0.08696621
63	0xbd46a799	-0.048499677
64	0xbda64a00	-0.08119583
65	0xbe103f97	-0.14086758
66	0xbce1d9ac	-0.027569614
67	0x3cc03cc1	0.02346647
68	0xbe4cb256	-0.19989905
69	0x3cd9f759	0.026607202
70	0x3e24860a	0.16066757
71	0x3dabd949	0.08391053
72	0xbc81104d	-0.015754843
73	0x3e185ef0	0.14879966
74	0x3df475d5	0.11936537
75	0xbb3aa3f7	-0.0028479078
76	0xbe397aee	-0.181133
77	0xbb9c6b55	-0.004773537
78	0x3dd0ac9d	0.10189173
79	0xbd93ec5c	-0.07222816
80	0x3d84bd1a	0.06481381
81	0x3db388b0	0.087663054
82	0xbd3995e9	-0.04530898
83	0x3dbbf034	0.091766745
84	0x3c2a71ec	0.010403138
85	0xbc9f199c	-0.019421391
86	0x3a8d420b	0.0010777129
87	0x3d5d1660	0.053976417
88	0xbc755044	-0.01497275
89	0x3dbf1b2a	0.09331353
90	0xbdabb912	-0.08384909
91	0x3e0db934	0.1384018
92	0x3d6c360d	0.057668734
93	0x3cf0299e	0.02931672
94	0xbdd94612	-0.10609068
95	0xbd0f3f16	-0.034972273
96	0x3e166e69	0.14690556
97	0xbc5aae81	-0.013347269
98	0x3c8a41b4	0.016877033
99	0xbd846920	-0.064653635
100	0xbe102736	-0.14077458
101	0xbd155cf3	-0.036465596
102	0xbe2bdaff	-0.16782759
103	0x3d0a16d7	0.033713188
104	0xbdf330ba	-0.11874528
105	0xbcfa8396	-0.030580323
106	0x3d3556cb	0.044272225
107	0xbe2dee3f	-0.16985415
108	0xbd05ecdf	-0.0326966
109	0xb9c11f5a	-0.00036835187
110	0x3d23b4c2	0.039967306
111	0xbc8d4ef6	-0.017249566
112	0xbcd573db	-0.02605622
113	0xbd8609ba	-0.06544824
114	0x3dd3c267	0.10339814
115	0xbdae5f9d	-0.085143305
116	0xbdb93558	-0.09043378
117	0xbe0f68b6	-0.14004788
118	0xbe0136b6	-0.12618527
119	0xbd7a0892	-0.06104333
120	0xbd91cd79	-0.07119269
121	0x3d20ed4e	0.03928881
122	0x3c0a230f	0.00843121
123	0x3db53bf7	0.08849328
124	0x3e0edeb2	0.13952139
125	0xbc26fa9b	-0.010191585
126	0x3d1cf1b2	0.038316436
127	0xbde23672	-0.11045541
128	0xbce05392	-0.0273836
129	0xbdb93fa7	-0.09045344
130	0x3db6651a	0.08906002
131	0xbd9c7dc2	-0.07641174
132	0xbd4fd343	-0.050738584
133	0xbccb38c9	-0.02480735
134	0xbd91e88c	-0.07124433
135	0x3dfb5304	0.12271693
136	0xbc8fe18f	-0.01756361
137	0xbd0def80	-0.034652233
138	0x3d28a7ea	0.04117576
139	0xbe125cf3	-0.1429327
140	0xbd8a371b	-0.06748792
141	0x3e0e6c2e	0.13908455
142	0x3d2ee884	0.042702213
143	0x3e20e28d	0.15711422
144	0xbd94ce7f	-0.072659485
145	0xbd37bfb4	-0.044860557
146	0xbd123975	-0.035699327
147	0x3c3325be	0.010934291
148	0x3e787ef8	0.24267185
149	0x3c03a5ef	0.008035167
150	0xbcd4d7b7	-0.025981767
151	0x3e30743b	0.17231838
152	0x3cc6033a	0.02417146
153	0xbceb5ad8	-0.028729841
154	0xbe1d86ed	-0.15383501
155	0xbe458d39	-0.19292153
156	0x3db58cb5	0.08864728
157	0x3e048d43	0.12944512
158	0x3c3fcada	0.011706078
159	0x3d13f915	0.036126215
160	0xbcc41f15	-0.023940602
161	0xbd20da50	-0.0392707
162	0xbbf7d4d9	-0.007563215
163	0x3e2747a9	0.1633593
164	0x3bd4c697	0.0064934003
165	0x3e3d8005	0.18505867
166	0x3e25458d	0.16139813
167	0x3c1dcbfd	0.009631154
168	0x3d745304	0.059649482
169	0x3d00205b	0.031280857
170	0x3d918231	0.0710491
171	0xbe1100c9	-0.14160456
172	0x3d19016c	0.03735487
173	0xbd4c1596	-0.049825273
174	0xbd950d29	-0.07277901
175	0x3d552a73	0.052042436
176	0xbc04342d	-0.00806908
177	0xbdbbf977	-0.09178441
178	0x3e1891e5	0.14899404
179	0x3e833641	0.2562733
180	0x3c02aa62	0.007975193
181	0xbc9373e5	-0.017999599
182	0x3cfe8f8c	0.031074308
183	0xbe924130	-0.2856536
184	0x3d1f5a0e	0.038904242
185	0xbcf0390e	-0.02932408
186	0xbd942be7	-0.07234936
187	0x3d325c50	0.043545067
188	0x3dbed593	0.0931808
189	0xbd510d43	-0.051038038
190	0xbd81cb9c	-0.063376635
191	0x3d516066	0.051117323
192	0x3ca11b21	0.019666256
193	0xbd0e03a9	-0.03467146
194	0xbcb3a77e	-0.021930452
195	0x3d35166f	0.044210847
196	0xbd49976b	-0.04921667
197	0x3d1808c0	0.03711772
198	0xbc26fcb8	-0.010192089
199	0xbd8af7ba	-0.06785531
200	0xbe14a97e	-0.14517781
201	0x3ea06873	0.31329688
202	0xbc7e77f6	-0.015531531
203	0x3c6e8d07	0.014559991
204	0xbd972cf6	-0.073816225
205	0x3e0f4e76	0.13994774
206	0x3d37d9e9	0.04488555
207	0x3cf96bf1	0.030446978
208	0x3c8bfc72	0.017088149
209	0xbd7df2ba	-0.06199906
210	0x3b96e519	0.0046049473
211	0xbdba2e23	-0.09090831
212	0xbd9ab796	-0.075545475
213	0xbc95c998	-0.018284604
214	0xbd4537ec	-0.048149034
215	0x3dd43059	0.10360784
216	0x3cc003b3	0.023439264
217	0x3dabccfd	0.08388708
218	0x3b6138e1	0.0034366178
219	0x3e155e44	0.1458674
220	0x3e0a4d26	0.13505992
221	0xbd8086d9	-0.0627572
222	0xbdb12971	-0.086504824
223	0xbbcca185	-0.0062448406
224	0x3cdef484	0.027216204
225	0xbd611fcb	-0.05496196
226	0xbd2af083	-0.041733276
227	0xbabf43bb	-0.0014592329
228	0x3d3935a6	0.04521718
229	0x3d075239	0.033037398
230	0x3e037b3d	0.1283998
231	0xbcf6091c	-0.03003364
232	0xbd3c7ba4	-0.04601635
233	0xbd8eebdd	-0.06978581
234	0xbcc94ea0	-0.024573624
235	0x3ddfcfe8	0.10928327
236	0x3d18151e	0.037129514
237	0xbc37f19d	-0.011227039
238	0x3d9bdb8d	0.07610235
239	0xbbe3e6ed	-0.0069550187
240	0x3c7c190e	0.015386833
241	0x3dcff1f6	0.10153572
242	0xbe03311b	-0.12811701
243	0xbde724a1	-0.11286283
244	0xbdcdb192	-0.100436345
245	0xbc5da119	-0.013527178
246	0xbd48136b	-0.048846643
247	0xbe15bdcd	-0.14623185
248	0xbd8e108a	-0.06936748
249	0x3c46a098	0.0121232495
250	0x3e50f332	0.20405272
251	0xbc4bcab4	-0.012438465
252	0x3e0a54a1	0.13508846
253	0x3c094bc1	0.008379878
254	0xbd562d16	-0.05228909
255	0x3b8c3a15	0.004279385

blockC.bias f4 [64]
0	0xbcbfcaf3	-0.023412203
1	0x3d560848	0.05225399
2	0xbc561afe	-0.013067959
3	0xbc271c96	-0.0101996865
4	0x3d303bc7	0.043025758
5	0x3cf25a22	0.029583994
6	0x3d0c8171	0.034303132
7	0x3c3a507d	0.011371729
8	0x3cb14846	0.021640908
9	0x3aff26a1	0.0019466468
10	0xbc7e40b4	-0.015518356
11	0x3ce8664c	0.028369091
12	0x3cd9bdbf	0.026579736
13	0x3d0be55c	0.03415428
14	0xbc8e9136	-0.017403226
15	0xbd2441a2	-0.040101655
16	0x3cb29c7b	0.021803131
17	0x3da0081f	0.07814049
18	0x3ced40eb	0.02896162
19	0xbcb57ad8	-0.022153303
20	0x3d1eac52	0.038738556
21	0xbd54633b	-0.051852446
22	0x3caeaccd	0.021322632
23	0x3da51d33	0.0806221
24	0x3d5d7d34	0.05407448
25	0x3caa4ed3	0.02078954
26	0xbd1f2660	-0.038854957
27	0x3d3c7795	0.04601248
28	0xbce3fcd9	-0.027830528
29	0x3d75014f	0.0598157
30	0x3d6b1a69	0.057398234
31	0xbd1b9442	-0.037983187
32	0xbb30f1cf	-0.0026999598
33	0xbd5ead46	-0.054364465
34	0x3c1afbba	0.00945943
35	0x3cbb10f8	0.02283524
36	0xbd41d027	-0.04731765
37	0xbd664d39	-0.05622599
38	0x3cc20f5a	0.02368896
39	0x3ca3af52	0.01998106
40	0xbbce4fc9	-0.006296132
41	0xbcabb439	-0.02095996
42	0x3daddc2d	0.08489261
43	0x3d38b191	0.045091216
44	0x3d8da733	0.06916656
45	0xbb2221ad	-0.002473931
46	0xbc915570	-0.017740935
47	0xbc5587e3	-0.013032886
48	0xbad7f55b	-0.001647632
49	0xbd60a734	-0.054846957
50	0xbd2a61d8	-0.041597217
51	0xbcbd27cc	-0.023090266
52	0xbcde3959	-0.027126955
53	0x3d66c171	0.056336824
54	0x3caae5a3	0.020861452
55	0xbc807c77	-0.01568435
56	0xbd019404	-0.0316353
57	0x3ce04202	0.027375225
58	0xbc9d4f3c	-0.019202821
59	0x3db7e074	0.08978358
60	0xbd1f6f31	-0.0389244
61	0xb96b4212	-0.0002243596
62	0x3d8fef4f	0.07028066
63	0x3cf7db8d	0.030256057

fc1.weight f4 [1, 64]
0	0x3d8fd889	0.07023723
1	0xbe87d0e4	-0.26526558
2	0x3dd3c48b	0.10340222
3	0x3e68cd4e	0.22734568
4	0x3ee2ca17	0.44294807
5	0xbe355b2c	-0.1771056
6	0xbd4275aa	-0.047475494
7	0x3e043f99	0.12914886
8	0x3e9c4660	0.30522442
9	0xbed77696	-0.4208266
10	0x3db3e55e	0.08783983
11	0xbe5cdd12	-0.21568707
12	0xbedd8ddb	-0.4327229
13	0x3d72a293	0.059237074
14	0xbe2835d3	-0.16426782
15	0xbe68b9e6	-0.22727165
16	0x3e099b25	0.13438089
17	0x3dfc787b	0.12327667
18	0x3e321ff6	0.17395005
19	0x3c9e9323	0.01935727
20	0x3e43c464	0.19117886
21	0xbeae79bb	-0.34077248
22	0x3dc74536	0.09729998
23	0x3dee4ec1	0.11636115
24	0xbea52d72	-0.32261235
25	0xbe2ff21a	-0.17182198
26	0xbe670f2a	-0.22564378
27	0x3ddc2541	0.10749293
28	0x3e8ce7ec	0.27520692
29	0x3d604961	0.05475748
30	0x3e64ca78	0.2234286
31	0xbdcc92d6	-0.09988944
32	0x3e6781c4	0.22608095
33	0xbdb3da3e	-0.08781861
34	0xbce5a488	-0.028032556
35	0x3dbee38c	0.09320745
36	0xbcf914ce	-0.030405428
37	0xbe99e43e	-0.30056947
38	0xbd435a1c	-0.047693357
39	0x3e54f9c5	0.20798405
40	0xbc5d9c19	-0.013525986
41	0xbe34e672	-0.17666033
42	0x3e36f2f2	0.17866114
43	0x3ded64be	0.11591481
44	0x3dc2c7c6	0.0951076
45	0xbd876252	-0.0661055
46	0xbe995f49	-0.2995551
47	0x3e52d510	0.2058909
48	0x3e7e80f1	0.24853875
49	0xbd112d48	-0.035443574
50	0xbcb79abe	-0.022412654
51	0x3e887a01	0.26655582
52	0xbedab2d5	-0.42714563
53	0x3dd02918	0.10164088
54	0xbe915b77	-0.28390095
55	0x3d037252	0.032091446
56	0xbe6fd3e7	-0.23420678
57	0x3e954c24	0.29159653
58	0xbd9870b6	-0.07443373
59	0x3d5cfd06	0.05395224
60	0xbe27e32d	-0.16395254
61	0xbd616b6e	-0.055034094
62	0x3dbca0bb	0.092103444
63	0xbe14bbbf	-0.14524744
