Assignment2/Models/CNN_l1.pt (torch, 166159 bytes, 7 tensors)

blockA.weight f4 [16, 3, 9, 9]
00000000: 64f7 62bc cf6c d43c acdc f6bb 802a 68bd
00000010: e998 e2b8 122e 933c c963 7039 60b2 203d
00000020: 92fe 5c39 099c 48bc e723 f4bd 6d0a 0f3c
00000030: 78ad 7fbd c715 8dbd e8f5 52bd b79e 7c39
00000040: 5eb2 d739 9823 113a 2892 213d 8ab2 313d
00000050: ebaa e03d 8630 11bd f733 46b8 d769 e638
00000060: 7d82 2639 686d e8bd 075f c039 85a7 debd
00000070: 87e3 2e3d 16ad 5a3d 26b5 fa3c 00c1 0e3e
00000080: 6337 0eb8 5929 1dba a72a 833d 885e cb39
00000090: e0d5 21bc b8f8 00b9 f3ae eabc c231 ffb7
000000a0: f0d2 89bd 6d6d b63d cb3a bf3d 72d0 2834
000000b0: 1a60 8e3b ae15 5eb9 9f66 40be fefe a73d
000000c0: 939e 113e 22bc 3c3e fb76 d13c c799 933d
000000d0: d630 84bd 5e55 8eb7 f7ee 903d 13b8 91bd
000000e0: 19ac 093c 7847 f83d 3bbc e2b7 f19a 7a3c
000000f0: 774c 8337 1eaf b4bd 52f0 4e3c fc9c 57bd
00000100: 5125 9db7 68aa 64bd 7ce9 d2ba f270 9dbd
00000110: ea2a a23d f22e 80bd 14c5 1137 85a1 26be
00000120: 2957 2a3d 7765 08b9 e03f 233e 180c 87bc
00000130: 7c28 10be bccf 85b8 c0d2 60bb 37c4 c8bc
00000140: 3c90 ff38 3032 acbd 7839 b5b9 5b97 fcbd
00000150: ad5f 94bd 23f7 ba3c dd70 16bd e9f6 6839
00000160: bf8c a83d c8e8 7d39 f2a2 853b 676e 4a3d
00000170: cd91 7cbd f8f2 a0b9 40b8 0fb7 4839 063a
00000180: d196 4739 c235 cabc 6eb4 353a 8fde 54b9
00000190: 0852 53bc 33a8 623d 7a97 bcb8 d8d8 a83b
000001a0: 1384 1d37 d3de 83b9 fcfc f6bc ca26 cc3c
000001b0: 80e0 9ebd 09c5 70b9 dca5 5c3d 8702 e6b8
000001c0: f549 ecb8 4328 f6b8 c9ed 8bb9 598f 69b9
000001d0: 8b9e 35b9 f889 133e 7e45 753d 0c99 063d
000001e0: 9c36 a3bd 5dec 02bd 8c6c d9b8 5571 a0b8
000001f0: 8f95 25b9 c1a2 97b8 ae71 263b ef81 55b9
00000200: 0d75 133d e8c7 17bd c3ef bb3c e0b6 fc3d
00000210: 0964 3eb8 845c 9cb8 56e7 81bd cbfc eb3d
00000220: 85dc 0c3d 7087 8bb9 59b5 873d 66fc b4b8
00000230: cf8c 42bc 9190 f13d 637a 49be 8ad1 f6bb
00000240: ff49 79bd c5a1 39b9 0d3d 22b9 fc69 1ebd
00000250: c9bd 83bd 03e3 84bd f0e9 ad37 ff7f 01be
00000260: 6ec0 ac3c 7760 44b9 13ee 1cb9 4aba 22bd
00000270: 2e32 94bd f534 ff3c d3b4 b2bc 1d8e 733d
00000280: 6fed f3bd a368 efbb d59f 913c 6d28 56bd
00000290: fce5 1535 f63e e13d 6bcf f83b 4295 2639
000002a0: 202e cc39 c240 21bd e9ba 3839 503d 93b9
000002b0: 114f bbbb 15cc 0138 9251 3d3d ba52 7e3d
000002c0: 7387 1b3a feb8 f739 2c60 283a ffbc a93d
000002d0: fd1c 68bd 7e4e 8ebd 9ee9 5a3c 59b6 9d3d
000002e0: 5923 edb8 199e 6238 cc3b 1a39 1057 8339
000002f0: 5db4 1f3d 26b1 a5bd ac37 bcbd 05ee 59bd
00000300: eae4 2535 c5d3 b3b7 79d3 cc3c 3360 8db8
00000310: 2d96 53b9 3742 2b3e 7c66 06be 6579 48b9
00000320: 8db2 28bd 537b 1abc a3b7 c4bd 59b0 eebc
00000330: 97dc 553e 23de 22b9 6006 bdbd 8b4c 8b3c
00000340: bc09 49bd 5969 23b9 3579 ab3d 4140 843d
00000350: b4a8 18b8 97f9 beb6 bb28 b2b7 f716 843c
00000360: 4db0 083e cb98 54b8 5faa 37b9 8252 05b9
00000370: c3c6 70bc 6b81 183d 31bf 0bb7 445e 0937
00000380: f479 e5b7 7617 6e3d 3584 6ebd 5dca acb8
00000390: 29c2 12b9 2485 78b8 d45d f0bc dbca e5b7
000003a0: 9739 de3c 220a 913d 1b3b 2f3d f049 f53c
000003b0: 2dde 7c3d 5b3e f0bd ed86 6bb8 f269 cfbc
000003c0: 5bd6 8ab7 b7ef e136 1f7f f1bc 0307 053b
000003d0: 6548 213b f868 8f3d 14ce 573b 6c94 223e
000003e0: 6c2b a239 e4a8 a8b8 7840 84bb 1af6 263e
000003f0: f932 8dbd 9971 8e3a 26cc 563c ec00 5c3a
-0.013852928 0.02593079 -0.0075336304 -0.056681156 -0.000108050015 0.017966304 0.00022925356 0.03923261
0.0002107567 -0.012244233 -0.1192091 0.008730513 -0.062421292 -0.06888919 -0.051504046 0.00024091719
0.0004114089 0.0005536615 0.039446026 0.04338316 0.109701 -0.035446666 -4.7255275e-05 0.00010986969
0.00015879604 -0.113489926 0.00036691895 -0.108717956 0.042697456 0.053387724 0.030603956 0.13940811
-3.390702e-05 -0.0005995236 0.0640462 0.00038789609 -0.009877652 -0.00012299686 -0.028647875 -3.042154e-05
-0.06729686 0.0890759 0.09337386 1.5722051e-07 0.0043449523 -0.00021179646 -0.18789147 0.08202933
0.14220648 0.18431142 0.02556943 0.07207065 -0.06454627 -1.6967471e-05 0.07076829 -0.071151875
0.008402848 0.121230066 -2.7028951e-05 0.01529573 1.5652024e-05 -0.088224635 0.012630539 -0.052639946
-1.8733235e-05 -0.055826575 -0.0016091312 -0.07687558 0.079183415 -0.06258954 8.688559e-06 -0.16272552
0.04158703 -0.0001300777 0.15942335 -0.016485259 -0.14077944 -6.380628e-05 -0.0034305304 -0.024507625
0.00012186213 -0.0840801 -0.00034565828 -0.12333556 -0.07244811 0.022822922 -0.03672873 0.00022217225
0.0822997 0.00024214678 0.0040782625 0.049421694 -0.061662484 -0.00030698604 -8.566363e-06 0.000512023
0.00019034302 -0.024683837 0.0006931488 -0.00020300805 -0.012897976 0.05533619 -8.992753e-05 0.005152803
9.38868e-06 -0.00025152284 -0.03014993 0.02492084 -0.07757664 -0.00022961585 0.053869113 -0.000109677254
-0.000112671325 -0.000117376934 -0.0002668931 -0.00022274013 -0.00017320567 0.144081 0.059880726 0.0328608
-0.079694 -0.031963695 -0.00010367585 -7.650504e-05 -0.00015791341 -7.2305564e-05 0.0025397348 -0.00020361667
0.0360003 -0.03705588 0.022941476 0.12339568 -4.5392695e-05 -7.455892e-05 -0.06342952 0.11522826
0.03438999 -0.00026613055 0.06626386 -8.630082e-05 -0.011874392 0.11795152 -0.19675593 -0.007532303
-0.060861584 -0.00017703239 -0.00015472267 -0.038675293 -0.06432683 -0.064886115 2.0732143e-05 -0.12646483
0.021087851 -0.00018727953 -0.00014966009 -0.03972844 -0.072361335 0.031153182 -0.02181474 0.0594617
-0.11910521 -0.007306175 0.01777641 -0.052284647 5.5841497e-07 0.10998337 0.0075930855 0.00015886597
0.00038944278 -0.0393684 0.00017617237 -0.00028083706 -0.0057162126 3.0946063e-05 0.04622037 0.062090613
0.0005932964 0.0004724934 0.0006423022 0.08288001 -0.05666827 -0.06948565 0.013361363 0.07700796
-0.00011307625 5.402984e-05 0.0001470886 0.00025051134 0.038990367 -0.08090429 -0.09190306 -0.05320551
6.1800404e-07 -2.1437076e-05 0.025003182 -6.7413224e-05 -0.00020178473 0.16724478 -0.13125032 -0.0001911871
-0.041185904 -0.009428817 -0.096053384 -0.029136823 0.2088493 -0.00015532276 -0.092297316 0.017004272
-0.04908155 -0.00015584136 0.08372728 0.06457568 -3.639674e-05 -5.6914973e-06 -2.123822e-05 0.016124232
0.13348503 -5.068704e-05 -0.00017515708 -0.00012714605 -0.014695826 0.037232798 -8.329561e-06 8.187784e-06
-2.7355716e-05 0.058127843 -0.05823155 -8.239292e-05 -0.00013995975 -5.9251804e-05 -0.029341616 -2.739339e-05
0.02712707 0.07082011 0.042780977 0.029942483 0.06173532 -0.11730643 -5.6154026e-05 -0.025319073
-1.6550699e-05 6.733429e-06 -0.029479561 0.0020298369 0.00246098 0.07002443 0.0032929229 0.15876931
0.000309314 -8.0423226e-05 -0.0040360056 0.16304818 -0.06894488 0.0010867595 0.013110196 0.00083924714

blockA.bias f4 [16]
00000000: f2c1 d8b9 aa4a 6d3d e05d bf3b 479b 2d3c
00000010: 5224 4b3d a013 263d 27ba 51bc 4c0c 7539
00000020: b824 563c 46fa a9bb af08 d23c 70c4 76b9
00000030: 3a09 32bb d1aa 623c 8e50 06bb 0b0c febc
-0.0004134323 0.057932533 0.005840048 0.010596103 0.049595185 0.04054606 -0.01280073 0.00023369602
0.013070278 -0.0051873056 0.025638906 -0.00023533567 -0.0027166144 0.013834671 -0.0020494792 -0.031011602

blockB.weight f4 [32, 16, 6, 6]
00000000: 3909 dd37 ec80 3239 0e06 6bb7 e674 9fbd
00000010: 5004 fe37 a12c 8d38 201b b138 52f9 acbc
00000020: b8a7 81bd 725d b337 51c0 2d39 8454 9639
00000030: 8f8a 9038 5214 163d c8d2 a23c f694 a7b8
00000040: 083d cf38 6e91 8d39 2f58 bcb8 65ed d9b7
00000050: bc37 d7b7 9a03 2239 d5e2 7137 e0d4 b239
00000060: 8608 dab8 bf02 013d f03a ba38 a919 ae38
00000070: 0f76 2f39 b1df 7b3b 07d7 56b8 de1e 8cb4
00000080: 8d1f 5b38 220a 0339 02c0 2a38 dce0 62b8
00000090: eedc e438 af9f 55b8 4f32 3039 b55a f939
000000a0: 4dbc 883c 8d02 7539 c6db 2239 3b2b e335
000000b0: e9a7 1ab8 1276 d038 0b5a 1fbd 4605 4b39
000000c0: 26ef f0b8 1d0f 93b9 0f60 82b9 11b2 8838
000000d0: d68a 2339 24fd d738 020c 33b9 0c16 41b9
000000e0: 9b9b f5b8 cce7 b138 fdee db36 3257 5e39
000000f0: f1ce 8fb9 84ed d3b9 98c3 d1b9 60a6 1a39
00000100: fb77 fab8 9bcc 2939 0266 45b9 a051 6db9
00000110: 8ba9 c1b8 aa2d 8ab8 66df 60b9 bb32 a938
00000120: 062b 5439 a319 9a39 e72a beb8 83c9 9f37
00000130: bdcb 9cb8 c77b 4439 67eb d039 865f be38
00000140: c39f a039 cbe9 9339 219f 7039 b5ca 4839
00000150: e595 0fbc e35b b339 cd2d 003a e7c9 8439
00000160: 52c4 1139 ecac 9039 b534 a538 c4cf 9139
00000170: 3957 15b9 2abc 3239 233a 2639 5f96 1b39
00000180: 6ee0 e53a bc2a 7238 1257 06bd f737 3638
00000190: df33 6839 4197 8438 572a 8437 5e79 36b9
000001a0: f8b7 65bc 9cfc 4838 e203 5836 3b47 cab8
000001b0: b81e f8b8 c5c8 a0b8 badf 2d39 68d5 ef38
000001c0: e870 7838 2b97 4238 f6b7 7b3d 0e2b c3b8
000001d0: 3347 1fb7 8aef e837 e977 d238 8170 ba36
000001e0: c76b 5438 e3c9 05b9 9b45 4738 83a0 b938
000001f0: ea2a 0737 0589 41b8 2aeb 9bb8 b425 9db8
00000200: a4a9 4c37 6b69 1a39 c592 2038 c2b6 afb7
00000210: 16bb 18b9 1ae7 0eb9 2b12 6838 57f8 fe37
00000220: c4e9 ba37 5e53 bd39 225f e1b8 f8a7 d5b7
00000230: 9455 1438 51f7 93b9 2d02 90b8 0dc5 4436
00000240: 93fc 89b7 451a b5b8 851e 0638 72cd f836
00000250: 0e73 4739 312b 7839 4950 70b9 669d c437
00000260: 3332 34b9 cca2 c937 c5a8 d038 cdf1 e439
00000270: 1e16 b4b9 0988 fab9 2cc8 6738 1609 77b7
00000280: ba64 c638 d1fc ae39 73b4 f3b8 52e5 aab9
00000290: 3554 b938 5dd2 2338 9420 1739 0f28 7f3c
000002a0: 45d8 1fb9 fdfe 9bb9 1928 67b8 cbe0 b138
000002b0: 1d28 193d c9ef 9039 50e3 2cb9 baf1 66bc
000002c0: f8ce c337 cd20 9eb7 8682 c238 fcf3 5939
000002d0: 493e 1639 f592 4736 e0f6 99b7 5b03 d438
000002e0: d7ce 1ebb a27a cdbb 9db3 df38 8f91 0b39
000002f0: bab6 e938 b428 2838 58b6 5639 75d5 ee39
00000300: dc0a fb38 8de8 40b9 64e3 ea38 7d0f 4c37
00000310: aa8a aa39 0741 f039 2b47 68b9 6cc2 88b9
00000320: 53eb b238 8c42 56bc 8f2e b63c 548b 133a
00000330: 3cc9 b9b9 899f 2db8 3c5c 0d39 50f0 3039
00000340: 5a1c 2739 5777 173a 107d 10b9 947e cbb8
00000350: ed9f 47b8 9dcb aeb8 32fe 2ebd 2603 8639
00000360: 7960 393d dba1 4c37 d50b 3738 137e e437
00000370: ad47 f2b7 78fd 80b8 5259 7938 929f 71b8
00000380: c864 7e38 b1c1 af37 4997 d037 d1a2 32b8
00000390: 7d37 b237 a937 a8b7 f6e0 9737 f474 0638
000003a0: c1dd 9b38 770f 40b8 e550 17b7 aaa2 7338
000003b0: 4b1b fcb6 e93d 0336 f6f5 c438 6266 9638
000003c0: 4990 a5b8 4068 fcb8 f467 cb35 c874 b4b8
000003d0: 88aa 4a3d c56b ad38 1c38 84b7 9429 e035
000003e0: 33ca ebbb 3d0b f3b8 e7b3 66b8 e434 05bd
000003f0: 5f59 8aba 1326 ce3c f330 ab39 7d7b 4139
2.6349548e-05 0.0001702343 -1.4008501e-05 -0.077859685 3.0281168e-05 6.731717e-05 8.44507e-05 -0.021114979
-0.06330818 2.1381977e-05 0.00016570209 0.00028673199 6.8922636e-05 0.036640473 0.019875899 -7.990927e-05
9.881897e-05 0.0002700197 -8.980964e-05 -2.5978961e-05 -2.565595e-05 0.00015450866 1.4417533e-05 0.0003410941
-0.00010396638 0.03149676 8.880149e-05 8.301746e-05 0.00016733281 0.003843289 -5.1221836e-05 -2.609949e-07
5.2243053e-05 0.00012496908 4.070998e-05 -5.4092015e-05 0.000109130386 -5.0931874e-05 0.0001680341 0.00047560563
0.016691351 0.00023365971 0.00015531396 1.69254e-06 -3.687284e-05 9.940205e-05 -0.03890423 0.00019361553
-0.00011488637 -0.00028049285 -0.00024867101 6.518153e-05 0.00015596612 0.0001029915 -0.00017075244 -0.00018414127
-0.00011711494 8.483193e-05 6.5545305e-06 0.00021204053 -0.0002742927 -0.0004042202 -0.00040009315 0.00014748564
-0.00011943277 0.00016193317 -0.00018825385 -0.00022632489 -9.234537e-05 -6.5888584e-05 -0.00021445527 8.067997e-05
0.00020233923 0.0002939227 -9.067897e-05 1.9048113e-05 -7.476609e-05 0.00018738127 0.0003984824 9.0776986e-05
0.0003063661 0.00028212214 0.00022947464 0.00019149 -0.008763765 0.00034210001 0.00048896373 0.0002532743
0.00013901413 0.00027594657 7.8776306e-05 0.00027811353 -0.0001424224 0.000170455 0.00015852651 0.0001483797
0.0017538199 5.7737096e-05 -0.03279788 4.3444303e-05 0.00022144568 6.322424e-05 1.5755342e-05 -0.00017402085
-0.014020912 4.7918977e-05 3.2188768e-06 -9.645378e-05 -0.00011831283 -7.666791e-05 0.0001658191 0.00011436158
5.923296e-05 4.639399e-05 0.061454736 -9.306344e-05 -9.493716e-06 2.77681e-05 0.00010035915 5.556329e-06
5.0645114e-05 -0.00012759077 4.7510122e-05 8.851385e-05 8.056619e-06 -4.6142395e-05 -7.434779e-05 -7.493366e-05
1.2198845e-05 0.00014725856 3.8283662e-05 -2.0946729e-05 -0.00014565545 -0.00013628267 5.533003e-05 3.0394802e-05
2.2281783e-05 0.00036111003 -0.00010746556 -2.5469795e-05 3.536565e-05 -0.0002822229 -6.86686e-05 2.9320975e-06
-1.6449287e-05 -8.635646e-05 3.1976513e-05 7.414893e-06 0.0001902098 0.00023667213 -0.00022918092 2.3438315e-05
-0.00017184838 2.4036875e-05 9.949649e-05 0.00043667704 -0.00034348754 -0.0004778507 5.5261116e-05 -1.4724463e-05
9.4601375e-05 0.0003337623 -0.00011620754 -0.00032595784 8.837172e-05 3.9058144e-05 0.00014412618 0.015573516
-0.00015243988 -0.00029753885 -5.5112036e-05 8.481889e-05 0.03739177 0.00027644474 -0.00016487879 -0.014095718
2.3342189e-05 -1.8850342e-05 9.274953e-05 0.00020785624 0.00014328318 2.973885e-06 -1.8353981e-05 0.00010109573
-0.0024232173 -0.0062707225 0.00010666924 0.00013310298 0.00011144341 4.009223e-05 0.00020476559 0.00045553935
0.000119706354 -0.00018397179 0.00011200344 1.2162954e-05 0.0003252824 0.00045824816 -0.00022151756 -0.00026084797
8.531534e-05 -0.013077389 0.022238998 0.00056283665 -0.0003543588 -4.1394993e-05 0.00013481168 0.00016874191
0.00015936923 0.0005777976 -0.000137795 -9.703371e-05 -4.759424e-05 -8.3348925e-05 -0.04272289 0.00025560817
0.04525802 1.2197032e-05 4.364162e-05 2.7238426e-05 -2.8882025e-05 -6.150728e-05 5.9449412e-05 -5.760749e-05
6.065218e-05 2.095182e-05 2.486598e-05 -4.259014e-05 2.1245092e-05 -2.005308e-05 1.8105358e-05 3.205701e-05
7.432281e-05 -4.579077e-05 -9.019136e-06 5.8087207e-05 -7.5133626e-06 1.9556558e-06 9.391822e-05 7.171628e-05
-7.894688e-05 -0.000120357145 1.5154933e-06 -8.604821e-05 0.049479038 8.2693565e-05 -1.5761754e-05 1.6701401e-06
-0.007195735 -0.00011589236 -5.500382e-05 -0.032521144 -0.0010555199 0.02516464 0.00032652132 0.00018451917

blockB.bias f4 [32]
00000000: edb9 e039 057c ecb8 7f3c 5139 7ac8 8e3c
00000010: 0e21 2ebc 2732 2539 07fc 97bb bb1b a8bc
00000020: be66 7cb8 ceaa 143c a858 9b38 48cf d1b8
00000030: 91b6 5b38 c654 25bb fe6e 64b8 4d51 cd3a
00000040: 17d4 303b ab81 a9ba 0e71 cf38 1e8f 9c39
00000050: 2a55 2f39 b6f7 9e38 ba60 b038 b409 5a39
00000060: 378d 2039 abf2 8cb6 a832 0ebd 702d 80b8
00000070: a8e6 153d 4aa1 62bc 3260 74bc 7fc8 733d
0.00042863135 -0.000112764574 0.0001995433 0.017429579 -0.010627998 0.0001575431 -0.0046381983 -0.020521035
-6.0177168e-05 0.009073926 7.4074895e-05 -0.00010004506 5.2383697e-05 -0.002522753 -5.4462806e-05 0.0015664488
0.0026981884 -0.0012932321 9.891587e-05 0.0002986127 0.00016721027 7.580167e-05 8.410351e-05 0.00020793715
0.00015311396 -4.2005754e-06 -0.03471628 -6.111979e-05 0.036596924 -0.0138324 -0.014915513 0.05951738

blockC.weight f4 [64, 32, 3, 3]
00000000: 0e90 2738 b1b0 60b8 f0a0 2237 7c3c 1fb7
00000010: 2805 8737 1c47 8bb7 02f1 84b7 ffac 2837
00000020: 9d02 4738 8dd9 5737 bcab 8937 d3e8 a4b7
00000030: 2188 82b8 af9a da37 6cee 1ab8 7f63 32b8
00000040: d59a 7db7 f3c2 9eb5 ead2 0938 f4bb a937
00000050: fe61 b138 e1b3 f738 2f90 8bb7 1d47 3e38
00000060: 9308 52b7 3814 bf36 8563 2eb8 effb cc36
00000070: 85d7 6038 aa2e 9738 fbc3 05b4 9f19 a9b8
00000080: 1c19 1eb7 202f 5236 dcce 50b8 e7ab 6fb8
00000090: fe03 4fb8 05fc 6db6 8f67 1638 7df9 4037
000000a0: 6223 aeb7 34cc 1d37 c6bd 40b8 95d0 65b8
000000b0: 267c ba35 2bc9 7bb8 35f9 d9b8 4c6d 1738
000000c0: 4ffa 9ab6 e565 cbb7 ecb5 cfb7 c03a bfb7
000000d0: bb57 b9b7 8c28 bbb7 5ef9 c338 7355 01b8
000000e0: 6c9d 05b6 f055 9e38 f015 5538 619e 9638
000000f0: fae6 2a38 9c09 5fb7 3467 50b8 7a27 26b8
00000100: eabd 41b6 22fd fd34 3b67 b837 d1da 61b7
00000110: df04 d6b7 92c0 c238 bfea 2db8 65ff d4b7
00000120: a7f0 42b5 3643 a8b7 a060 4338 970d 68b7
00000130: 9c67 8c37 400f d0b7 f4a1 52b8 e70c 5138
00000140: 0417 f0b7 9d5c f4b7 b002 a238 c05e 2938
00000150: 89f5 87b8 d569 25b7 33d1 c237 57c0 0538
00000160: a50c 2638 ef73 3036 7764 afb7 f68b f237
00000170: d0c2 21b8 8a80 97b7 1f3b 4c37 ce2e 8138
00000180: 5697 95b7 2581 b037 af8e ebb4 b69b f736
00000190: 4013 03b9 27f8 5db7 75c2 13b6 8b46 2538
000001a0: 541f 0238 674e c8b7 5cbe bfb7 7224 c2b7
000001b0: 1f53 0635 eae9 2eb8 2045 ef37 94af be37
000001c0: cebc acb7 35df 14b8 563b eab5 6f21 8837
000001d0: 0f7a 8e38 9d73 2237 766a a9b8 9e89 a5b8
000001e0: e2e2 04b8 1d3f 5fb7 7104 2c37 ce30 e037
000001f0: 0c36 0338 d325 22b8 f7db 7437 6beb 7db8
00000200: 1f3c 74b8 21e1 b4b7 d18e 11b8 3f63 d338
00000210: 3238 a7b8 74f2 5638 7bf0 f4b7 a1af 3737
00000220: 3135 00b7 c4b9 0338 2bf7 2138 d101 18b6
00000230: 9af9 1e38 54ad e536 df73 8b36 f94a 88b7
00000240: 57ab 6837 1f73 8337 704c b2b8 7465 34b8
00000250: 43c5 1738 db20 52b8 c34f 8ab7 8ccd 73b8
00000260: 453c ae38 d0da c4b7 2289 7a37 c47c 06b8
00000270: 4989 09b4 4b22 a737 d8d6 c036 1059 e4b7
00000280: 8589 ddb6 a892 8137 82e1 bcb7 efa4 3737
00000290: f8aa f0b7 d723 78b7 f291 9335 8758 26b8
000002a0: 2b6b 25b7 4746 38b8 f53a 0639 0472 fab7
000002b0: 6bd6 1cb7 d0d8 0938 7c0f 3337 2d06 f0b7
000002c0: 45fd f237 4b69 7438 a53b 27b8 b96a 3ab8
000002d0: cd6b f035 6afd 25b7 7ec5 8236 43ea 31b8
000002e0: 95e5 4e37 341f 0538 bceb c734 9402 3838
000002f0: 55b3 f636 a0a4 7b37 3400 e936 1e34 f3b7
00000300: 48f5 84b8 43a0 b637 3688 88b7 5bf6 5738
00000310: f224 d837 b26f 5638 35c4 45b8 2ce6 3cb6
00000320: 249b e537 3af8 10b8 a280 d036 ceae 76b8
00000330: 38cb 6db8 9b91 dab8 6f58 36b8 52f2 10b8
00000340: 6548 12b8 cdb0 11b7 5fb3 1f36 da9a 9138
00000350: 9617 ae37 eb27 9037 a20c 55b8 6a10 11b6
00000360: 918d 42b8 790d b8b7 0665 f0b6 01f3 2cb8
00000370: eb41 a5b7 bd1e aa37 2e5b 0cb7 28cd c335
00000380: a511 a337 cd09 c837 4099 5db6 f40b bdb7
00000390: b165 b5b7 73c3 ae37 338f 0c38 0afb d3b7
000003a0: 254b b337 406c 6138 c29e aab7 1ebb cbb8
000003b0: 9d25 2eb6 7e82 bf38 bea4 8ab8 7f1d 2cb6
000003c0: 969c 40b8 dceb 4db7 4710 9c37 7ee9 83b7
000003d0: 5586 4137 fde6 6d37 89c2 a0b6 8d22 40b7
000003e0: 07d8 2e38 e42a f8b7 1c3f aeb7 d130 dab7
000003f0: 0c1a 8f36 4d43 cdb7 7816 47b7 5618 ceb7
3.9950064e-05 -5.357032e-05 9.693424e-06 -9.491221e-06 1.6095655e-05 -1.6603204e-05 -1.5847854e-05 1.0053859e-05
4.744773e-05 1.2865651e-05 1.6411643e-05 -1.965874e-05 -6.224239e-05 2.6059655e-05 -3.693851e-05 -4.253117e-05
-1.5116025e-05 -1.1828655e-06 3.2859774e-05 2.0233892e-05 8.45827e-05 0.00011811383 -1.6637232e-05 4.536576e-05
-1.2518972e-05 5.6945973e-06 -4.1577518e-05 6.1090027e-06 5.360648e-05 7.208933e-05 -1.2457888e-07 -8.06332e-05
-9.42338e-06 3.131987e-06 -4.9783717e-05 -5.7142137e-05 -4.9356364e-05 -3.5462447e-06 3.5859233e-05 1.150218e-05
-2.0758893e-05 9.405474e-06 -4.5953107e-05 -5.479211e-05 1.3894212e-06 -6.0030416e-05 -0.00010393785 3.6102996e-05
-4.6186974e-06 -2.4246934e-05 -2.4761037e-05 -2.2796332e-05 -2.2094571e-05 -2.2311018e-05 9.344773e-05 -3.0835577e-05
-1.9910176e-06 7.550034e-05 5.080359e-05 7.182058e-05 4.0746272e-05 -1.3294073e-05 -4.968718e-05 -3.961425e-05
-2.8869786e-06 4.73091e-07 2.198258e-05 -1.3461992e-05 -2.5513056e-05 9.28651e-05 -4.146504e-05 -2.5391297e-05
-7.2620827e-07 -2.0058458e-05 4.6581612e-05 -1.3831442e-05 1.6737547e-05 -2.4802634e-05 -5.0218732e-05 4.98415e-05
-2.8620947e-05 -2.9130193e-05 7.7252625e-05 4.0380983e-05 -6.483036e-05 -9.859407e-06 2.3224018e-05 3.18888e-05
3.958926e-05 2.6293526e-06 -2.0908408e-05 2.8913822e-05 -3.8566825e-05 -1.8060458e-05 1.2173113e-05 6.1599174e-05
-1.7832655e-05 2.1040973e-05 -4.3875977e-07 7.3793008e-06 -0.00012500305 -1.3230404e-05 -2.2017896e-06 3.9404764e-05
3.1023592e-05 -2.3878367e-05 -2.2857617e-05 -2.3143573e-05 5.0039847e-07 -4.1702682e-05 2.8523209e-05 2.2731525e-05
-2.0591917e-05 -3.5493827e-05 -1.7451628e-06 1.6228032e-05 6.793823e-05 9.682871e-06 -8.078378e-05 -7.893446e-05
-3.1682554e-05 -1.33065305e-05 1.0253033e-05 2.6725607e-05 3.128317e-05 -3.8659036e-05 1.4594748e-05 -6.053915e-05
-5.8230125e-05 -2.1562506e-05 -3.4703702e-05 0.0001007975 -7.973648e-05 5.1247378e-05 -2.919905e-05 1.0948542e-05
-7.641779e-06 3.140584e-05 3.8615584e-05 -2.2650822e-06 3.7902595e-05 6.84491e-06 4.156012e-06 -1.6247375e-05
1.3868171e-05 1.5670024e-05 -8.501939e-05 -4.300983e-05 3.618492e-05 -5.00985e-05 -1.6488024e-05 -5.8127145e-05
8.3081926e-05 -2.3466913e-05 1.493309e-05 -3.2064287e-05 -1.2809063e-07 1.992392e-05 5.747057e-06 -2.7221191e-05
-6.6023226e-06 1.544629e-05 -2.2516357e-05 1.0946052e-05 -2.8689843e-05 -1.47902965e-05 1.0994829e-06 -3.965993e-05
-9.859718e-06 -4.393447e-05 0.00012801199 -2.9855415e-05 -9.348248e-06 3.2865268e-05 1.0672837e-05 -2.8613105e-05
2.8966586e-05 5.8272195e-05 -3.987145e-05 -4.444525e-05 1.7912768e-06 -9.893769e-06 3.897293e-06 -4.241826e-05
1.2332011e-05 3.173873e-05 3.7238158e-07 4.387142e-05 7.3522483e-06 1.4999096e-05 6.9439648e-06 -2.8992126e-05
-6.339938e-05 2.1770718e-05 -1.6275892e-05 5.148943e-05 2.576641e-05 5.11256e-05 -4.7151192e-05 -2.814816e-06
2.737117e-05 -3.4563454e-05 6.213858e-06 -5.881377e-05 -5.6694465e-05 -0.00010422171 -4.347454e-05 -3.4557954e-05
-3.4876535e-05 -8.683838e-06 2.3797254e-06 6.942982e-05 2.07534e-05 1.7184726e-05 -5.0794923e-05 -2.1616238e-06
-4.638505e-05 -2.1940783e-05 -7.164318e-06 -4.123431e-05 -1.9700228e-05 2.0279893e-05 -8.36588e-06 1.458834e-06
1.943933e-05 2.3846422e-05 -3.302077e-06 -2.2536122e-05 -2.1624235e-05 2.083343e-05 3.3511966e-05 -2.527006e-05
2.1373455e-05 5.3744996e-05 -2.0339507e-05 -9.7146476e-05 -2.5949914e-06 9.131896e-05 -6.6110384e-05 -2.5647166e-06
-4.59222e-05 -1.22738675e-05 1.8604229e-05 -1.5725145e-05 1.1534973e-05 1.4180082e-05 -4.7910185e-06 -1.1452136e-05
4.1686024e-05 -2.9583876e-05 -2.0771804e-05 -2.6010357e-05 4.2647644e-06 -2.4469244e-05 -1.1866556e-05 -2.4568446e-05

blockC.bias f4 [64]
00000000: 3234 0f37 da74 1f39 bfde 20bc a234 a4b9
00000010: b4a6 2fbc e40a 96bc 9244 2ab8 63df 063c
00000020: 1807 27b8 ae1a 8c3c 595a a13c a3b0 4236
00000030: 1991 3abc 3bd0 81b7 990d 23b9 59c3 7639
00000040: 3f6c 0139 fe64 4338 6e72 7e38 8475 0a39
00000050: 3e66 ee38 20a1 35bd 1a49 f5b7 d175 3a38
00000060: ec9a 793c 6fd5 1738 228c 8738 150a a5ba
00000070: b68f 7e38 023c 89b9 0f3b 4239 213e c238
00000080: 6ff9 7939 3e3d 4236 0eba 41b9 de2c 9e3c
00000090: 8774 27b9 2cfe b53c 5277 8ebc ba59 3c3d
000000a0: e0fa 1839 0f1b 2d3c 1529 ddb7 367f 6a39
000000b0: 6c67 0038 4741 8fb9 7426 673d 77be 0139
000000c0: 37e2 a3b9 c529 9a3c 1d1a f5bc 358a d739
000000d0: bc18 bb35 c72a ecb8 388a 8d39 638b 223c
000000e0: c799 1339 31f9 74b9 c972 8d38 d58a 1a3b
000000f0: 2512 9fb7 7013 3438 24d8 5cb9 92e3 0cb8
8.535617e-06 0.00015206952 -0.009818732 -0.00031319732 -0.0107208975 -0.01831574 -4.059502e-05 0.0082319705
-3.982251e-05 0.017102566 0.019696401 2.9011069e-06 -0.011387133 -1.5474963e-05 -0.00015549957 0.00023533161
0.00012342723 4.658568e-05 6.066489e-05 0.00013204484 0.000113677685 -0.044343114 -2.9240317e-05 4.445558e-05
0.01523469 3.619998e-05 6.4634034e-05 -0.0012591506 6.069216e-05 -0.00026175386 0.00018523283 9.262213e-05
0.00023839412 2.89439e-06 -0.00018475225 0.019308504 -0.00015969771 0.022215925 -0.01739088 0.045984007
0.00014589308 0.010565533 -2.6364383e-05 0.00022363369 3.0613897e-05 -0.0002732372 0.056433156 0.00012373352
-0.00031258326 0.018818745 -0.029919678 0.00041110968 1.3939784e-06 -0.00011261325 0.00026996597 0.009920928
0.00014076299 -0.00023362484 6.744784e-05 0.0023581285 -1.8962726e-05 4.2933447e-05 -0.00021061354 -3.3590542e-05

fc1.weight f4 [1, 64]
00000000: 5bd3 11b5 79f2 e03d 0637 a7be 0bf3 75be
00000010: 9c88 7dbe 2403 9dbe b926 c5bc e7b8 473e
00000020: 97f6 003c 15b5 933e fad6 163e d8a3 ea3c
00000030: 2964 b5be 3dc9 2abc 5ff3 5cbe c994 533e
00000040: 56a9 b03d 9bea 68bc b5b3 9eb5 c1bd b43d
00000050: bc54 413d 5ae5 abbe 6274 bdb6 ed5a 2e3d
00000060: 5509 843e 98eb 96b7 1568 b03d 2b85 d7bd
00000070: 6ca8 ff3c f1dd 8abe 3b20 1d3e 0fb0 943d
00000080: deda 8f3e 50b9 7bb7 59a7 03be e45d 5c3e
00000090: 36e3 00be 8f4e b73e 68ef 01bf 23f4 7a3e
000000a0: b723 fa3d c0c9 12bf ac50 93bc 3f80 263e
000000b0: e59d 1437 d9f8 8abe ffab a73e 8aae d63d
000000c0: f8e1 8fbe 21b7 aabe db5d 9bbe 60f9 ca3e
000000d0: 781a 54bd fbb3 b1bd beda 663e d0f5 ea3d
000000e0: 4c2c c33d 4e25 73be 831d 913d 4ea0 e63e
000000f0: 4940 4dbd bb49 a7bc 3f4f 2abe 26d6 42b7
-5.432427e-07 0.10983748 -0.32659167 -0.24018495 -0.24759144 -0.3066646 -0.024066316 0.19504128
0.007871292 0.28849092 0.14730445 0.02864258 -0.3542798 -0.0104239555 -0.21577214 0.20662226
0.08626048 -0.014216091 -1.1824219e-06 0.08825255 0.04719995 -0.3357342 -5.6461877e-06 0.042567182
0.2578837 -1.79911e-05 0.08613602 -0.10523447 0.03120824 -0.27122453 0.15344326 0.07260143
0.2809667 -1.5003912e-05 -0.12856807 0.21520191 -0.12586674 0.35802123 -0.5075593 0.24507193
0.12213843 -0.57339096 -0.017982803 0.1625986 8.85825e-06 -0.2714298 0.3274841 0.104825094
-0.28102088 -0.3334284 -0.30345044 0.39643383 -0.051783055 -0.08676907 0.22544381 0.11472666
0.09529933 -0.237447 0.07085707 0.45044178 -0.050110135 -0.0204209 -0.16631792 -1.1613161e-05
